Task2/model_rectangle.pt (torch, 106025 bytes, 20 tensors)

conv1.0.weight f4 [16, 2, 3, 3]
0.21244182 0.249671 -0.051411316 -0.18001024 0.082360685 -0.14752875 -0.15179114 -0.039158005
0.054189436 -0.10419822 -0.12123664 0.08572209 0.17146127 -0.025827987 0.14384246 -0.08617485
-0.21502614 -0.21211055 0.28619713 0.21927394 0.1276116 0.049695265 -0.15094358 -0.17252828
0.16803615 -0.23862207 -0.065707706 0.100192055 0.24057172 -0.27323195 -0.1781802 -0.17884594
0.1117033 0.0711646 -0.15033162 -0.25500488 -0.1573371 0.20134233 -0.06781622 -0.0151821235
-0.0057028555 -0.12523672 -0.14384148 -0.04678354 0.054825533 -0.17888513 0.33335647 -0.14302732
-0.18314573 -0.0054001324 0.09358708 -0.077641636 -0.021013265 -0.05737995 -0.16977686 0.1709501
0.044886466 -0.1455198 0.19132568 -0.14062408 0.07395383 0.21435456 -0.067380905 -0.035722256
0.017817749 -0.12129165 -0.1227689 0.2100576 -0.078391865 -0.20342742 0.1275309 -0.22638072
0.06206962 0.31738243 0.23818797 -0.034013223 0.033863463 0.12936503 -0.31504458 -0.12352766
-0.11435849 0.20569865 0.16347483 -0.011044979 0.056658626 0.0987756 -0.023721771 -0.17228577
-0.26963297 -0.08487226 0.13350011 -0.19745721 -0.061446294 0.10778149 0.16064414 0.027137542
0.09967863 -0.21107997 -0.111953065 0.10367479 -0.23714796 0.031215122 0.17246912 0.05584026
-0.052387003 -0.14387865 -0.14686677 -0.021037033 -0.13839146 -0.0038450335 0.066076085 -0.24424005
0.115292534 -0.03814071 0.13947362 0.29039246 -0.20400412 -0.08012769 -0.20123693 -0.019338826
0.043983743 -0.18731964 -0.09100887 0.18899253 -0.04562232 0.20435226 0.09257535 0.24089439
0.09140998 -0.16365767 -0.13503963 -0.16589317 -0.0032144715 -0.072203524 -0.13758229 0.17750742
0.28960437 0.14945023 -0.051744983 -0.16562335 -0.19819652 -0.05336209 -0.15651132 -0.023380356
-0.028289532 -0.20120154 -0.14683598 0.37629426 0.14280394 0.07348355 0.11290111 -0.18661612
-0.12385555 0.09913536 0.02690859 -0.23617023 -0.08907386 0.17596973 0.0061475486 -0.0084617315
0.21397656 -0.042163882 -0.043216076 0.060010523 -0.07381653 0.051979434 -0.0037935944 0.04852353
-0.16214286 -0.21186006 0.34022775 -0.04525469 8.701161e-05 -0.21186598 -0.08269873 0.13122426
-0.20629032 -0.038002245 -0.079482086 0.2989431 -0.07366921 -0.32292178 -0.050544098 0.013143811
-0.16371396 0.29705623 0.016725559 0.014460936 -0.034100674 -0.37907368 -0.33594662 0.11538146
0.074793786 -0.028127281 0.31117678 -0.122716896 -0.058022447 0.024264293 0.14075336 0.30004498
-7.13152e-06 0.43557236 0.120674446 0.022674924 0.21324812 0.169491 -0.07229046 0.14189522
0.07766387 -0.017449887 -0.18742974 0.19664839 -0.07443697 -0.07958516 0.024144031 -0.003944588
-0.14945808 -0.28346434 -0.03384818 0.17549153 -0.0691928 0.17087433 -0.21341257 -0.13947447
0.043693013 0.18856035 0.12498145 0.26763532 -0.21779364 -0.13893686 0.21020977 0.06438827
-0.07817664 0.102231205 0.21172647 0.033243656 -0.18523213 -0.086156465 -0.076844044 -0.13491182
-0.22961894 -0.2185397 -0.014365076 0.06470522 0.08107771 0.056714524 0.14707172 -0.12810828
-0.1134029 0.19200264 0.11451027 -0.108480334 -0.063378155 -0.098257996 0.17502473 -0.12753047
00000000: 598a 593e c1a9 7f3e ac94 52bd 9b54 38be
00000010: b8ac a83d c711 17be 236f 1bbe 2564 20bd
00000020: bef5 5d3d e065 d5bd ea4a f8bd 108f af3d
00000030: 8b93 2f3e 3795 d3bc 704b 133e 717c b0bd
00000040: d02f 5cbe 8233 59be 6e88 923e 5989 603e
00000050: 9eac 023e 438d 4b3d f490 1abe 41ab 30be
00000060: ab11 2c3e 5859 74be c391 86bd 7e31 cd3d
00000070: 6f58 763e 0fe5 8bbe df74 36be 6423 37be
00000080: b3c4 e43d bfbe 913d 88f0 19be 0090 82be
00000090: fa1c 21be af2c 4e3e 3be3 8abd 71be 78bc
000000a0: 05df babb 0e3e 00be 2e4b 13be 19a0 3fbd
000000b0: bd90 603d aa2d 37be b3ad aa3e c175 12be
000000c0: 8e8a 3bbe 98f3 b0bb 95aa bf3d 9402 9fbd
000000d0: 0324 acbc 3d07 6bbd fcd9 2dbe 8b0d 2f3e
000000e0: dfda 373d 2403 15be e1ea 433e c2ff 0fbe
000000f0: 1b75 973d c37f 5b3e 00ff 89bd 8051 12bd
00000100: 87f6 913c c267 f8bd 436e fbbd 5719 573e
00000110: ea8b a0bd 474f 50be 7697 023e 59d0 67be
00000120: b73c 7e3d f37f a23e 8ce7 733e 7351 0bbd
00000130: 6ab4 0a3d 4478 043e 864d a1be 12fc fcbd
00000140: c934 eabd aba2 523e f265 273e 00f6 34bc
00000150: e012 683d dd4a ca3d 2954 c2bc ae6b 30be
00000160: 550d 8abe 82d1 adbd 41b4 083e 3932 4abe
00000170: 1caf 7bbd 8bbc dc3d e67f 243e 8d4f de3c
00000180: 4f24 cc3d 5925 58be a647 e5bd 7353 d43d
00000190: ead6 72be dbb6 ff3c bf9b 303e c2b8 643d
000001a0: c193 56bd ed54 13be 3e64 16be db55 acbc
000001b0: 7eb6 0dbe f5fc 7bbb e652 873d 101a 7abe
000001c0: 7e1e ec3d 6f39 1cbd 2cd2 0e3e 52ae 943e
000001d0: 75e6 50be fd19 a4bd 0e11 4ebe 756c 9ebc
000001e0: 4c28 343d b8d0 3fbe dc62 babd 4287 413e
000001f0: 78de 3abd b841 513e 2598 bd3d 05ad 763e
00000200: 2835 bb3d e095 27be d447 0abe e6df 29be
00000210: e2a9 52bb 71df 93bd 5fe2 0cbe 81c4 353e
00000220: 0647 943e 7b09 193e 8cf2 53bd 2b99 29be
00000230: 07f4 4abe 3592 5abd 8144 20be 2988 bfbc
00000240: 73bf e7bc c707 4ebe 2c5c 16be a4a9 c03e
00000250: 323b 123e 8b7e 963d b238 e73d 4c18 3fbe
00000260: fba7 fdbd 7b07 cb3d 676f dc3c 9cd6 71be
00000270: 5b6c b6bd 6931 343e 6071 c93b 13a3 0abc
00000280: ac1c 5b3e 09b4 2cbd 5703 31bd 98cd 753d
00000290: 1f2d 97bd 63e8 543d f49d 78bb 9cc0 463d
000002a0: c708 26be d8f1 58be 5532 ae3e fb5c 39bd
000002b0: 017a b638 65f3 58be f45d a9bd a75f 063e
000002c0: c53d 53be 3ea8 1bbd 81c7 a2bd 120f 993e
000002d0: e2df 96bd 0156 a5be 5407 4fbd 2459 573c
000002e0: a2a4 27be c117 983e 0a04 893c 90ed 6c3c
000002f0: 26ad 0bbd f215 c2be 3201 acbe 1d4d ec3d
00000300: 7c2d 993d 2f6b e6bc 9052 9f3e ff52 fbbd
00000310: f2a8 6dbd e9c5 c63c a621 103e 7f9f 993e
00000320: 4a4b efb6 5703 df3e 2a24 f73d c3c0 b93c
00000330: b75d 5a3e 0c8f 2d3e 050d 94bd fb4c 113e
00000340: 3c0e 9f3d 11f3 8ebc 95ed 3fbe 325e 493e
00000350: 6972 98bd 8bfd a2bd b4c9 c53c 9a41 81bb
00000360: 8a0b 19be 3d22 91be 64a4 0abd 0db4 333e
00000370: f4b4 8dbd aef9 2e3e d388 5abe 65d2 0ebe
00000380: 72f7 323d f715 413e 46f6 ff3d 7f07 893e
00000390: 4c05 5fbe 7745 0ebe 3b41 573e ffdd 833d
000003a0: 131b a0bd 985e d13d d3ce 583e 802a 083d
000003b0: 7ead 3dbe cd72 b0bd 6960 9dbd 5326 0abe
000003c0: 3a21 6bbe dfc8 5fbe 7f5b 6bbc 2c84 843d
000003d0: 120c a63d 7d4d 683d f899 163e d12e 03be
000003e0: c83f e8bd 579c 443e 5c84 ea3d f02a debd
000003f0: 68cc 81bd 7d3b c9bd af39 333e 5997 02be

conv1.0.bias f4 [16]
0.18563665 0.05584135 0.18571706 -0.0945111 0.09477211 0.32832655 0.19225411 0.041707736
-0.23165391 -0.088810876 0.12500261 0.12806588 -0.18535696 0.13662052 0.31064042 0.04885537
00000000: 8917 3e3e e6b9 643d 9d2c 3e3e 098f c1bd
00000010: e117 c23d 6b1a a83e 43de 443e bbd5 2a3d
00000020: af36 6dbe 7ae2 b5bd af00 003e b423 033e
00000030: 37ce 3dbe 40e6 0b3e 430c 9f3e 921c 483d

conv1.1.weight f4 [16]
1.1344649 1.0202789 1.0871024 1.1024231 0.8352539 1.1277367 1.0907829 1.0934733
0.7065233 1.0623531 1.1576642 0.7966997 0.8775844 1.0342221 1.3433015 1.0267329
00000000: 2536 913f 8098 823f 2c26 8b3f 331c 8d3f
00000010: 33d3 553f ad59 903f c69e 8b3f eff6 8b3f
00000020: b6de 343f 30fb 873f 572e 943f 83f4 4b3f
00000030: 5fa9 603f 6461 843f 4ef1 ab3f fc6b 833f

conv1.1.bias f4 [16]
-0.06466315 0.050360847 -0.02940648 -0.07139723 -0.07532396 0.2399351 0.16757567 0.061442763
0.011624652 0.12225694 -0.013613137 -0.25912204 0.032888032 -0.03813877 -0.04315075 -0.204187
00000000: 1d6e 84bd 2d47 4e3d dce5 f0bc b638 92bd
00000010: 7343 9abd 8cb1 753e f598 2b3e 68ab 7b3d
00000020: 5375 3e3c d961 fa3d a309 5fbc a5ab 84be
00000030: 9ab5 063d 6637 1cbd d7be 30bd 6616 51be

conv1.1.running_mean f4 [16]
0.06354431 -0.051215995 -0.015096622 -0.18752405 0.15413558 0.2250087 0.114895634 -0.06888493
-0.16477798 -0.1730042 -0.13191663 0.6521194 -0.17907566 -0.011289236 0.2166501 -0.26226118
00000000: 8523 823d ddc7 51bd d257 77bc 4e06 40be
00000010: b8d5 1d3e ae68 663e 674e eb3d 8b13 8dbd
00000020: 8fbb 28be 0328 31be 2715 07be 4cf1 263f
00000030: 9c5f 37be 7df6 38bc 86d9 5d3e 1947 86be

conv1.1.running_var f4 [16]
0.035589654 0.06624595 0.07039869 0.0378553 0.0724802 0.040139772 0.02964764 0.06648021
0.0340665 0.031678777 0.14104734 0.36482686 0.027010491 0.047861766 0.044011462 0.12729834
00000000: 75c6 113d f5ab 873d 302d 903d 290e 1b3d
00000010: 8070 943d 9a69 243d 9cdf f23c c726 883d
00000020: 5089 0b3d 9bc1 013d b76e 103e 96ca ba3e
00000030: 1b45 dd3c b30a 443d 5d45 343d 7f5a 023e

conv2.0.weight f4 [32, 16, 3, 3]
-0.073051035 -0.14504251 -0.024927545 -0.0612731 0.04257641 -0.07411705 0.027912885 -0.04836309
-0.10531413 0.06224206 0.08305883 -0.055153653 0.041202646 0.06946095 0.034473848 0.18238379
0.018398326 -0.08372701 -0.027798347 0.004224735 -0.04963439 -0.19337124 -0.027911687 0.03330499
0.107078075 0.02456027 0.066028655 0.09866838 -0.041070323 -0.07252551 0.061104946 -0.11395084
-0.073860966 -0.00700869 -0.07186152 -0.035841238 -0.057495292 -0.15202011 -0.06276362 -0.06852595
-0.087615356 -0.05103163 0.01453306 -0.105744585 -0.1386691 0.13144952 -0.018527132 -0.04801076
0.1423601 0.07659648 0.017811336 0.07534221 0.05548298 -0.060479864 0.11060359 -0.043096803
-0.03573932 0.14747939 0.054343704 -0.11629769 -0.055739876 0.0037199976 0.010124058 0.064810246
-0.012058347 -0.11906249 -0.05437958 -0.06745205 -0.0014081161 0.011264413 -0.11586469 0.09955245
0.014062334 -0.04862395 -0.09009522 0.08287514 -0.10032358 -0.08610373 0.048247647 0.030178284
-0.004939196 0.025312146 -0.04947892 -0.020037562 0.09124447 -0.0044200574 -0.03697453 0.08045038
0.07703208 0.11205323 -0.079504326 0.019669889 -0.05652257 -0.048881896 -0.059157375 -0.01686586
-0.13340154 0.014583927 -0.045763783 0.021630615 0.0046657864 0.011635032 0.03531553 0.043310132
0.040598463 -0.014733647 0.011060305 -0.087288484 -0.010232559 0.035151742 -0.0731939 -0.07374641
-0.1380262 -0.08331494 0.052220378 -0.0578057 -0.11848743 -0.12717931 0.08019063 0.025487095
-0.106848754 0.070763625 -0.01521047 -0.15435685 -0.00016327537 -0.08539447 -0.087063536 -0.040212996
-0.21254192 -0.18912813 -0.16979007 -0.11981058 -0.17354313 -0.16883989 0.00032491458 -0.1450514
0.05190691 0.08536769 -0.19341211 -0.050841194 0.05917917 -0.15119597 -0.050518103 0.08285055
0.15609603 -0.04072774 -0.0676927 0.22201923 0.021765864 0.1713297 0.049807955 -0.13547628
-0.099878006 0.116467625 0.0525839 -0.08903853 0.10909863 0.013051591 -0.000250202 0.11770691
0.016112374 -0.15824248 -0.0077045127 -0.19041423 -0.12810977 0.2024358 -0.05916237 0.18712229
-0.1002654 -0.07755798 -0.010538579 0.1831754 0.04623678 -0.041077286 0.09972539 -0.14288396
0.13100877 0.072396494 0.053732336 -0.0065232837 -0.020491127 -0.13532203 -0.08968611 0.050316785
-0.10121992 -0.051734462 -0.034894153 0.044412967 -0.0006078256 -0.020251412 -0.07381646 -0.073145725
0.027673306 0.12893331 0.0044823484 -0.07427376 0.064174026 -0.11572436 0.06546738 -0.024738135
-0.068105094 0.0022696825 0.07867884 0.089905776 0.017472481 -0.023185235 -0.16945656 0.049518015
0.09553277 0.027484972 0.023831272 0.03701296 0.055397525 0.09381016 -0.00914237 0.04153712
-0.040931065 -0.09420499 0.0053077177 -0.006757682 -0.14754592 -0.02629217 0.037212264 0.04719374
-0.021756211 -0.047636747 0.11781474 -0.088828474 -0.03875611 -0.03579767 0.056504797 0.05498736
0.14619397 0.031782642 -0.04887606 0.1816171 -0.13937494 -0.07018631 0.04872022 -0.0025073737
-0.007837235 0.11568618 0.029735155 0.038750786 -0.0717452 -0.036921427 0.019687487 -0.052911807
-0.13763212 0.0223377 -0.045651954 -0.07323771 -0.14998205 -0.01794329 -0.08646219 -0.10807022
00000000: c89b 95bd 0686 14be da34 ccbc 81f9 7abd
00000010: 9a64 2e3d aeca 97bd 90a9 e43c 6018 46bd
00000020: efae d7bd 88f1 7e3d bf1a aa3d cce8 61bd
00000030: 1bc4 283d 8b41 8e3d 7334 0d3d d1c2 3a3e
00000040: 16b8 963c 1179 abbd 5cb9 e3bc a56f 8a3b
00000050: 6e4d 4bbd 1c03 46be 0da7 e4bc d06a 083d
00000060: c04b db3d 9f32 c93c 083a 873d a612 ca3d
00000070: 5b39 28bd 4188 94bd 2e49 7a3d 0f5f e9bd
00000080: 6b44 97bd 27a9 e5bb 222c 93bd 43ce 12bd
00000090: 2f80 6bbd 29ab 1bbe 368a 80bd 5557 8cbd
000000a0: ae6f b3bd 8b06 51bd 121c 6e3c 9e90 d8bd
000000b0: 46ff 0dbe b49a 063e 36c6 97bc eea6 44bd
000000c0: d9c6 113e 9ede 9c3d 14e9 913c 044d 9a3d
000000d0: 1f42 633d bcb9 77bd 2384 e23d 4686 30bd
000000e0: 6563 12bd d604 173e 8197 5e3d 7c2d eebd
000000f0: 7f4f 64bd 34cb 733b 61df 253c 3cbb 843d
00000100: 6090 45bc 09d7 f3bd 1fbd 5ebd 4d24 8abd
00000110: 8990 b8ba 5f8e 383c 774a edbd 28e2 cb3d
00000120: b465 663c e829 47bd d883 b8bd 71ba a93d
00000130: 7376 cdbd 2757 b0bd 539f 453d 7338 f73c
00000140: fbd8 a1bb 6b5b cf3c 68aa 4abd d025 a4bc
00000150: 61de ba3d 21d6 90bb 9b72 17bd 2bc3 a43d
00000160: ffc2 9d3d 2a7c e53d 2ad3 a2bd bf22 a13c
00000170: 3684 67bd 6238 48bd 014f 72bd 462a 8abc
00000180: 6a9a 08be 6cf1 6e3c ce72 3bbd b032 b13c
00000190: 74e3 983b dca0 3e3c 04a7 103d f765 313d
000001a0: 934a 263d 6565 71bc 4836 353c 4ec4 b2bd
000001b0: 77a6 27bc 46fb 0f3d afe6 95bd 5c08 97bd
000001c0: bd56 0dbe 06a1 aabd 09e5 553d abc5 6cbd
000001d0: 8aa9 f2bd 4b3b 02be fc3a a43d 50ca d03c
000001e0: 85d3 dabd 85ec 903d 5635 79bc b90f 1ebe
000001f0: e634 2bb9 4ce3 aebd 5e4e b2bd 62b6 24bd
00000200: 97a4 59be ceaa 41be 73dd 2dbe 405f f5bd
00000210: 4ab5 31be 5de4 2cbe 4c59 aa39 5b88 14be
00000220: 579c 543d 41d5 ae3d d30d 46be db3e 50bd
00000230: db65 723d 1ed3 1abe 12ec 4ebd 8dad a93d
00000240: a3d7 1f3e 21d2 26bd 78a2 8abd 0259 633e
00000250: 534e b23c 0e71 2f3e 6d03 4c3d 4bba 0abe
00000260: d78c ccbd 9486 ee3d 3762 573d d559 b6bd
00000270: 1a6f df3d 57d6 553c 8b2d 83b9 5210 f13d
00000280: 19fe 833c 510a 22be 2376 fcbb f3fb 42be
00000290: 352f 03be 554b 4f3e 3e54 72bd fc9c 3f3e
000002a0: f257 cdbd b8d6 9ebd 01aa 2cbc 5592 3b3e
000002b0: c762 3d3d a840 28bd d33c cc3d 2c50 12be
000002c0: 2a27 063e 9d44 943d 7016 5c3d 45c1 d5bb
000002d0: 02dd a7bc dc91 0abe 5aad b7bd f918 4e3d
000002e0: 644c cfbd 84e7 53bd 2ced 0ebd 5fea 353d
000002f0: 7c56 1fba 4ae6 a5bc 162d 97bd 6dcd 95bd
00000300: 21b3 e23c 1807 043e aae0 923b d71c 98bd
00000310: ac6d 833d e500 edbd c313 863d a1a7 cabc
00000320: af7a 8bbd f4be 143b 5f22 a13d 8520 b83d
00000330: 7322 8f3c f6ee bdbc 0586 2dbe 67d3 4a3d
00000340: afa6 c33d 2a28 e13c cd39 c33c e79a 173d
00000350: 84e8 623d 8b1f c03d e1c9 15bc d422 2a3d
00000360: 55a7 27bd 8cee c0bd 5dec ad3b 8c6f ddbb
00000370: 4716 17be ad62 d7bc e36b 183d 394e 413d
00000380: 153a b2bc c01e 43bd db48 f13d b4eb b5bd
00000390: babe 1ebd 94a0 12bd 9371 673d 6d3a 613d
000003a0: dfb3 153e 842e 023d 4332 48bd d5f9 393e
000003b0: 4eb8 0ebe d7bd 8fbd da8e 473d c052 24bb
000003c0: bf67 00bc e0ec ec3d 2497 f33c 25b9 1e3d
000003d0: 26ef 92bd ec3a 17bd a747 a13c 0dba 58bd
000003e0: 6fef 0cbe 8dfd b63c 8bfd 3abd a7fd 95bd
000003f0: e594 19be cefd 92bc 1713 b1bd eb53 ddbd

conv2.0.bias f4 [32]
0.02770611 -0.018688437 0.07139625 0.0028619512 -0.015883584 0.061172143 -0.0231434 0.027072506
0.07196855 0.032836087 0.10038313 0.0018433832 0.053331144 0.0001256412 0.051127702 -0.03967979
-0.03879585 0.02895865 -0.09012624 -0.0067754183 0.06375789 -0.084862635 -0.027012583 0.044206668
-0.045033358 0.00877299 0.06561617 -0.07218647 -0.0750165 0.094597295 -0.03902224 0.023461005
00000000: edf7 e23c 7e18 99bc 3238 923d 938f 3b3b
00000010: 4a1e 82bc a48f 7a3d 3a97 bdbc 29c7 dd3c
00000020: 3f64 933d 227f 063d ac95 cd3d ad9d f13a
00000030: c271 5a3d 8ebe 0339 486b 513d 4787 22bd
00000040: 66e8 1ebd b13a ed3c 1b94 b8bd 5404 debb
00000050: 7f93 823d 76cc adbd 7e49 ddbc 0d12 353d
00000060: e674 38bd 96bc 0f3c c561 863d 80d6 93bd
00000070: 40a2 99bd 3abc c13d c9d5 1fbd 4b31 c03c

conv2.1.weight f4 [32]
1.0196514 1.0053208 0.9824737 1.093142 1.1276593 1.0342586 1.0547253 0.727264
0.95984304 0.8141605 1.0146183 0.9728805 0.77408266 1.0625007 0.9910292 1.0074196
1.0039934 0.9147341 1.0727614 0.95588666 0.9817407 0.98197305 1.0443183 0.7682073
0.7640511 1.1054126 1.0940552 1.0419382 0.8019081 1.0800669 1.109502 0.941819
00000000: f083 823f 5aae 803f 6583 7b3f 14ec 8b3f
00000010: 2457 903f 9662 843f 3d01 873f f92d 3a3f
00000020: 46b8 753f d36c 503f 03df 813f b20e 793f
00000030: 482a 463f 0600 883f 17b4 7d3f 20f3 803f
00000040: db82 803f 042c 6a3f 3f50 893f fdb4 743f
00000050: 5c53 7b3f 9662 7b3f 39ac 853f 3ca9 443f
00000060: da98 433f 297e 8d3f 000a 8c3f 3b5e 853f
00000070: d949 4d3f a23f 8a3f 2904 8e3f 0d1b 713f

conv2.1.bias f4 [32]
-0.32797223 -0.22557497 -0.264516 -0.23138994 -0.37126863 -0.30132693 -0.41412854 -0.31353313
-0.3194837 -0.35632363 -0.39636028 -0.28056714 -0.3159101 -0.12055297 -0.47477743 -0.30381763
-0.37551513 -0.20894285 -0.13773115 0.04791509 -0.48452544 -0.3272423 -0.3696069 -0.4412989
-0.36531377 -0.3773821 -0.31854036 -0.23674251 -0.31942955 -0.4547816 -0.3145553 -0.19674483
00000000: faeb a7be 20fd 66be a46e 87be 7cf1 6cbe
00000010: ec16 bebe 8647 9abe a808 d4be 6a87 a0be
00000020: 5e93 a3be 0d70 b6be bcef cabe 7fa6 8fbe
00000030: f8be a1be 7ae4 f6bd 0716 f3be fc8d 9bbe
00000040: 8543 c0be 1df5 55be 6509 0dbe 9d42 443d
00000050: b813 f8be 4e8c a7be 1e3d bdbe eef1 e1be
00000060: 680a bbbe 3a38 c1be b917 a3be a16c 72be
00000070: 458c a3be 22d9 e8be 640d a1be 7a77 49be

conv2.1.running_mean f4 [32]
-1.5396229 0.09746997 -0.9811032 -1.1422261 -2.3444862 -1.1062506 -0.67659515 -1.1007438
0.11721696 0.81425 -1.4035509 -0.72776353 1.5937836 -3.5621662 -1.6295773 -0.7260648
-0.7861444 0.08134115 -1.4645431 -1.1557356 -1.2690506 -1.6035236 -1.0655729 0.6432284
-0.38629845 -0.90381044 -0.9602771 -0.57212865 0.77305424 -1.1995887 -0.8354022 -0.2838543
00000000: 5d12 c5bf 569e c73d 9429 7bbf 7734 92bf
00000010: 100c 16c0 9f99 8dbf 5735 2dbf 2ce5 8cbf
00000020: 720f f03d b072 503f 8ea7 b3bf b64e 3abf
00000030: 1a01 cc3f 88fa 63c0 fd95 d0bf 62df 39bf
00000040: c240 49bf 3096 a63d 2676 bbbf 25ef 93bf
00000050: 4070 a2bf 4340 cdbf b164 88bf 9eaa 243f
00000060: e9c8 c5be 1f60 67bf b8d4 75bf 0677 12bf
00000070: e2e6 453f 1f8c 99bf ebdc 55bf 5a55 91be

conv2.1.running_var f4 [32]
1.21068 0.82508045 1.3537354 1.2678643 1.2471187 1.2855855 0.8674405 0.8204157
1.0001974 1.019885 0.7871285 0.82207936 0.99807376 1.5061144 0.67672765 0.7244286
0.7344092 0.6794124 1.5839121 0.69645935 0.694307 0.8863919 0.71169746 0.5437306
0.5813568 1.2031543 0.8784348 1.0572613 0.51904523 1.1468834 0.716626 1.1588318
00000000: 90f7 9a3f 7938 533f 3447 ad3f 6149 a23f
00000010: 96a1 9f3f 118e a43f 9510 5e3f c306 523f
00000020: 7806 803f 978b 823f 4181 493f cb73 523f
00000030: c381 7f3f 5bc8 c03f 063e 2d3f 2774 393f
00000040: 3e02 3c3f f9ed 2d3f a2bd ca3f 294b 323f
00000050: 1bbe 313f 94ea 623f ce31 363f ee31 0b3f
00000060: cdd3 143f f600 9a3f 1ae1 603f 5754 873f
00000070: 26e0 043f 13cd 923f cd74 373f 9a54 943f

conv3.0.weight f4 [64, 32, 3, 3]
-0.12628414 -0.013849462 -0.19196366 -0.040591426 -0.060460288 -0.09206562 -0.08161887 -0.09183902
-0.19202638 -0.08746086 5.3256226e-05 0.0766745 -0.031771827 0.10562841 0.11926422 -0.20662566
-0.013241023 -0.04926714 0.030521255 -0.06776332 0.009317315 0.03223 -0.025186442 -0.075185135
0.13957527 0.026243115 -0.06699319 0.028719861 0.1058092 -0.12627004 0.120548196 0.03046369
-0.029729439 0.10416508 -0.04103262 -0.05696778 -0.12856996 -0.017342968 -0.00888063 -0.008501933
0.028017486 -0.06345749 -0.11965574 -0.12645648 -0.13753112 -0.019622141 0.019122109 0.018267851
0.09977828 0.070481315 0.08328236 0.049537674 0.069647595 -0.06147128 0.0066413213 0.08301338
-0.073933795 -0.15733194 0.039720874 0.24744216 0.2375784 0.0094433185 -0.07240138 0.024784163
0.095546424 -0.07846793 0.0045257923 -0.008733488 0.021299066 0.017758325 0.07178603 0.009471773
-0.11385943 0.02946912 -0.014431303 -0.079485245 -0.052477445 -0.044657487 0.0069242255 -0.04600918
0.044831164 0.025795557 0.029594773 0.08348757 0.05636724 0.0024285407 -0.027204791 -0.041309465
-0.0077837296 -0.0035518522 -0.007170289 -0.07149618 -0.18147978 -0.16242151 -0.124786295 -0.087113224
0.058975227 0.11771456 0.13325033 0.09478284 -0.119472705 -0.07418492 0.077982895 -0.06704791
0.027278008 -0.02619993 -0.06253206 -0.028203558 0.039733827 0.061843876 0.047798455 -0.051455252
-0.022827338 -0.06307376 0.0013499737 0.018336453 -0.051780645 -0.09930864 -0.05793467 -0.13310255
-0.093968466 0.058849555 0.03816137 -0.034649685 -0.04889864 0.09358553 -0.09273901 0.03351235
0.0056311456 -0.16866228 0.07898818 0.10676611 0.11111485 0.012000591 -0.12448477 0.02957427
0.094344385 0.12250144 -0.02955435 0.0084837675 0.025732862 0.034087885 -0.02160823 0.04077267
-0.018108547 0.10073957 0.13356784 -0.02178549 0.111467354 0.11542114 0.004107774 0.0618942
0.12634145 -0.04487736 0.0041002086 -0.010115524 -0.043418545 -0.060231116 -0.051534466 -0.07282763
-0.09741459 -0.036767803 -0.038561605 -0.14122684 -0.09564657 0.011589244 -0.10602173 -0.036489684
-0.07192705 0.06285965 0.0073893494 -0.14053036 0.02266358 0.15808178 -0.00049782713 -0.023646278
0.027274432 0.102271475 -0.061833315 -0.0005326326 0.012768337 -0.18041581 -0.2754929 0.11764317
-0.10768315 -0.1257434 0.012934197 -0.20722452 -0.089056954 -0.090852596 0.020568684 -0.042053614
-0.093392044 -0.058354214 -0.062154487 -0.07385395 0.021856006 0.014654938 -0.07529322 -0.06165375
0.11546164 0.07755985 -0.027520873 0.07250462 -0.01949266 0.064590625 0.016135193 -0.058363467
0.016677426 0.0237428 -0.039829414 0.00248077 0.043082047 -0.06526393 -0.02735474 0.0056778435
-0.01379761 0.028630635 -0.054600686 -0.023046385 -0.06378764 -0.05165555 0.07639549 -0.03480603
-0.028838357 0.03694322 0.23236966 0.062393304 -0.002821025 -0.06591598 0.13564347 0.025601462
0.08148894 0.04606762 0.027926542 0.031532414 -0.11417054 0.004357976 0.0027149701 0.13618685
0.02628337 0.10603934 0.16691676 0.15155835 -0.015571612 0.06727717 0.080555335 0.111275434
0.12596148 0.13922344 0.108850956 -0.048723135 0.05025433 0.0069386223 -0.03669938 -0.0020255693
00000000: a150 01be dbe8 62bc 1f92 44be 3243 26bd
00000010: 35a5 77bd e68c bcbd cb27 a7bd 1916 bcbd
00000020: 90a2 44be ae1e b3bd 705f 5f38 8507 9d3d
00000030: 2d23 02bd b553 d83d cd40 f43d ad95 53be
00000040: e0f0 58bc 57cc 49bd b607 fa3c 7fc7 8abd
00000050: a7a7 183c 9b03 043d cc53 cebc aafa 99bd
00000060: d2ec 0e3e cdfb d63c ba33 89bd ea45 eb3c
00000070: 7eb2 d83d ef4c 01be f9e1 f63d fd8e f93c
00000080: 278b f3bc 8054 d53d d211 28bd 0c57 69bd
00000090: d8a7 03be d712 8ebc 1080 11bc b14b 0bbc
000000a0: ed84 e53c 00f6 81bd 120e f5bd cf7d 01be
000000b0: f5d4 0cbe 9dbe a0bc f8a5 9c3c 76a6 953c
000000c0: 8e58 cc3d 8258 903d f18f aa3d 04e8 4a3d
000000d0: 66a3 8e3d 4fc9 7bbd 719f d93b eb02 aa3d
000000e0: 9a6a 97bd a01b 21be 5bb2 223d 7a61 7d3e
000000f0: c147 733e 26b8 1a3c 2d47 94bd 2808 cb3c
00000100: d8ad c33d cbb3 a0bd 194d 943b e716 0fbc
00000110: 617b ae3c e879 913c 8e04 933d 7f2f 1b3c
00000120: 222f e9bd 3969 f13c 4671 6cbc 29c9 a2bd
00000130: 97f2 56bd c5ea 36bd 9de4 e23b 1f74 3cbd
00000140: e2a0 373d 3451 d33c bd70 f23c 88fb aa3d
00000150: 56e1 663d 2728 1f3b 95dc debc 1d34 29bd
00000160: a80e ffbb 31c6 68bb bef4 eabb 976c 92bd
00000170: d6d5 39be d351 26be f58f ffbd 6b68 b2bd
00000180: 0290 713d 5514 f13d c672 083e 811d c23d
00000190: 1bae f4bd 43ee 97bd 7fb5 9f3d 6a50 89bd
000001a0: 2176 df3c 3ca1 d6bc cf10 80bd 260b e7bc
000001b0: f0bf 223d 0150 7d3d 50c8 433d bec2 52bd
000001c0: 6600 bbbc d12c 81bd 9af1 b03a 5436 963c
000001d0: f117 54bd 5462 cbbd e84c 6dbd 094c 08be
000001e0: 8a72 c0bd 3b0c 713d 194f 1c3d d4ec 0dbd
000001f0: f149 48bd c5a9 bf3d f3ed bdbd 3f44 093d
00000200: 7985 b83b ceb5 2cbe 8ec4 a13d 31a8 da3d
00000210: 2f90 e33d 209e 443c dff1 febd bd45 f23c
00000220: a137 c13d 09e2 fa3d f71b f2bc 80ff 0a3c
00000230: b9cd d23c bd9f 0b3d be03 b1bc 3e01 273d
00000240: 6058 94bc 8c50 ce3d 02c6 083e 7c77 b2bc
00000250: ff48 e43d eb61 ec3d 819a 863b c684 7d3d
00000260: a75f 013e 53d1 37bd 0b5b 863b 95bb 25bc
00000270: a5d7 31bd e7b4 76bd ce15 53bd a726 95bd
00000280: 4d81 c7bd d699 16bd c6f2 1dbd c59d 10be
00000290: 59e2 c3bd d0e0 3d3c ec21 d9bd 3576 15bd
000002a0: 7d4e 93bd 8fbc 803d 5b22 f23b 31e7 0fbe
000002b0: f9a8 b93c 31e0 213e 9d80 02ba d7b5 c1bc
000002c0: a16e df3c b573 d13d ee44 7dbd 5ea0 0bba
000002d0: 4932 513c ecbe 38be 680d 8dbe e7ee f03d
000002e0: fc88 dcbd e1c2 00be f4e9 533c aa32 54be
000002f0: 7e63 b6bd ed10 babd a87f a83c 6940 2cbd
00000300: 5444 bfbd d404 6fbd b495 7ebd bd40 97bd
00000310: 5e0b b33c 441b 703c 5533 9abd a488 7cbd
00000320: 2777 ec3d b3d7 9e3d 7473 e1bc 4d7d 943d
00000330: 12af 9fbc 1748 843d f42d 843c 880e 6fbd
00000340: 199f 883c 4380 c23c 2b24 23bd 6a94 223b
00000350: cd76 303d 18a9 85bd 0c17 e0bc 340d ba3b
00000360: 5f0f 62bc cb8a ea3c f8a4 5fbd c6cb bcbc
00000370: 18a3 82bd c594 53bd 3d75 9c3d c590 0ebd
00000380: 6b3e ecbc c651 173d 50f2 6d3e 1f90 7f3d
00000390: f2e0 38bb f5fe 86bd 1fe6 0a3e 28ba d13c
000003a0: ace3 a63d 67b1 3c3d 34c6 e43c 2228 013d
000003b0: 3ed2 e9bd 5acd 8e3b a4ed 313b 9174 0b3e
000003c0: 3950 d73c 272b d93d 3aec 2a3e 1d32 1b3e
000003d0: 1320 7fbc 9dc8 893d 32fa a43d 60e4 e33d
000003e0: 0cfc 003e 9790 0e3e 40ed de3d e991 47bd
000003f0: 7cd7 4d3d 625d e33b 1752 16bd 6abf 04bb

conv3.0.bias f4 [64]
0.028646348 -0.027256815 0.031527437 -0.010810396 -0.006680115 0.10573013 0.054436557 0.07236627
-0.021166954 -0.027931897 -8.211893e-05 -0.050799478 0.16639256 0.025724184 -0.07949671 0.09943871
-0.020880768 -0.06617951 0.0013618153 0.0014170274 -0.1010167 0.00851551 0.016720707 0.026962796
0.07908781 0.13460374 0.14333569 0.09754872 0.06198574 0.041722883 0.050700203 -0.0041282247
0.017768795 0.003807652 0.01562948 0.13008271 -0.03374995 0.028133303 0.022552922 -0.07337952
0.0589427 0.13481773 0.037380747 -0.06336507 0.10563116 -0.12865458 -0.059817594 -0.03465931
0.036171217 0.0031016397 0.005690227 -0.052632105 0.040186044 0.062218107 0.039796527 0.006647184
0.027403977 0.13872916 0.067548506 0.0023109855 -0.011430408 0.010936368 0.006275784 0.01466489
00000000: bfab ea3c af49 dfbc ea22 013d 161e 31bc
00000010: dee4 dabb 0a89 d83d def8 5e3d c434 943d
00000020: 5266 adbc 6fd1 e4bc 4437 acb8 1d13 50bd
00000030: d062 2a3e 86bb d23c 2ccf a2bd 86a6 cb3d
00000040: 250e abbc 1f89 87bd f07e b23a 8dbb b93a
00000050: d8e1 cebd a384 0b3c ddf9 883c 15e1 dc3c
00000060: caf8 a13d 90d5 093e 97c6 123e a0c7 c73d
00000070: c2e4 7d3d 9de5 2a3d 04ab 4f3d 0f46 87bb
00000080: dd8f 913c cd89 793b 6509 803c 6734 053e
00000090: 633d 0abd d077 e63c e8c0 b83c 0048 96bd
000000a0: e76d 713d a90d 0a3e 8e1c 193d 8cc5 81bd
000000b0: 2655 d83d 07be 03be 4b03 75bd ecf6 0dbd
000000c0: 4528 143d e144 4b3b 1575 ba3b c394 57bd
000000d0: 1f9a 243d 6ad8 7e3d af01 233d 9fd0 d93b
000000e0: 4e7e e03c 040f 0e3e df56 8a3d e773 173b
000000f0: 9b46 3bbc 742e 333c 18a5 cd3b 0245 703c

conv3.1.weight f4 [64]
1.880951 1.8317999 1.8777078 1.9749656 1.9761652 1.8483065 1.8953468 1.8852602
2.076526 2.057563 1.9820734 1.9426336 1.9941393 1.8139472 1.8042301 2.0396802
1.7873523 1.9272752 1.9297369 1.8966061 1.9582555 1.9551612 1.7978145 2.1746964
1.9080018 2.0255673 1.8419551 2.0254111 1.9021256 2.0312147 1.7489533 1.8173141
1.7960247 1.9552174 1.8745295 1.782131 1.946533 1.9916371 1.881639 1.8396467
1.8314694 2.1765468 1.9491302 1.9397595 1.9264356 1.8651228 1.9647738 1.8786641
2.025984 2.0928102 1.9108393 1.9865865 1.9315631 1.9351482 2.096278 2.1066751
1.8903221 1.8334017 1.9951802 2.051199 1.9550428 1.9000559 2.0565796 1.7225754
00000000: 01c3 f03f 6b78 ea3f bb58 f03f accb fc3f
00000010: fbf2 fc3f 4f95 ec3f b99a f23f 3550 f13f
00000020: cde5 0440 1daf 0340 95b4 fd3f 38a8 f83f
00000030: f53f ff3f 6c2f e83f 03f1 e63f 1f8a 0240
00000040: f6c7 e43f f4b0 f63f 9e01 f73f fdc3 f23f
00000050: 1ea8 fa3f b942 fa3f c91e e63f 3a2e 0b40
00000060: 6739 f43f e5a2 0140 2fc5 eb3f 56a0 0140
00000070: da78 f33f 6cff 0140 b4dd df3f c09d e83f
00000080: 23e4 e53f 9044 fa3f 95f0 ef3f de1c e43f
00000090: fe27 f93f f7ed fe3f 8cd9 f03f 8b79 eb3f
000000a0: 976d ea3f 8b4c 0b40 197d f93f 0a4a f83f
000000b0: 7195 f63f 58bc ee3f b57d fb3f 1178 f03f
000000c0: b9a9 0140 9af0 0540 6296 f43f 7748 fe3f
000000d0: 763d f73f f0b2 f73f 6b29 0640 c4d3 0640
000000e0: 13f6 f13f e8ac ea3f 1162 ff3f d846 0340
000000f0: d83e fa3f 0835 f33f 009f 0340 5a7d dc3f

conv3.1.bias f4 [64]
0.25723302 0.1517121 0.015808113 -0.08227629 0.07285534 0.06985048 -0.13228175 -0.111029536
0.081853956 -0.019134423 0.02615843 0.20665905 0.017267201 0.06753943 0.084859446 0.011869966
0.15400116 0.09679535 0.013443821 0.113498956 0.20545883 0.040051248 0.02575462 0.12499137
-0.11527783 0.15524428 -0.10574359 -0.094220825 0.108395405 0.032098174 0.06967705 0.058354665
0.03496763 0.05443441 0.07173412 0.015928773 0.18651015 -0.040740438 0.08934619 0.16294952
-0.06923792 -0.1270605 -0.023223747 0.12746312 -0.14127392 0.06690405 0.18912473 0.108070716
0.19754954 -0.050317384 0.051633358 -0.054357857 0.03360223 -0.040272262 -0.25675738 0.07634249
0.110821806 0.0334419 0.15308666 -0.00031054593 0.0693749 0.04261066 0.06550748 0.04001199
00000000: 0cb4 833e 6b5a 1b3e 0480 813c 7980 a8bd
00000010: 2e35 953d c50d 8f3d de74 07be 7463 e3bd
00000020: 0ca3 a73d cbbf 9cbc 344a d63c 6e9e 533e
00000030: f273 8d3c 1d52 8a3d caca ad3d 3f7a 423c
00000040: 7bb2 1d3e a43c c63d 7943 5c3c 2472 e83d
00000050: cd63 523e c70c 243d 5afb d23c 7afb ff3d
00000060: c816 ecbd 5bf8 1e3e 1890 d8bd d9f6 c0bd
00000070: 69fe dd3d 6079 033d d7b2 8e3d 4d05 6f3d
00000080: 383a 0f3d 9ef6 5e3d 57e9 923d 0f7d 823c
00000090: 84fc 3e3e 72df 26bd 23fb b63d 3ddc 263e
000000a0: 9ccc 8dbd 261c 02be ba3f bebc b185 023e
000000b0: 1caa 10be fe04 893d eaa9 413e 2e54 dd3d
000000c0: 6d4a 4a3e 9a19 4ebd 807d 533d 58a6 5ebd
000000d0: 7ea2 093d 87f4 24bd b475 83be 7459 9c3d
000000e0: 8bf6 e23d 60fa 083d c0c2 1c3e c5d0 a2b9
000000f0: 6d14 8e3d 8488 2e3d c928 863d 9de3 233d

conv3.1.running_mean f4 [64]
-0.0016229668 0.064674586 0.044085525 0.016091876 0.56851304 0.72662276 -0.37518153 0.473617
0.2946 0.0145604955 -0.09292583 -0.37895772 1.0425096 0.48844674 -0.050121307 0.3763512
0.039076935 -0.33803087 0.20917036 0.19274308 -0.3470069 -0.46119976 0.7847007 0.46182844
0.060256984 0.6987223 0.41073078 0.309017 0.15797591 -0.19166915 0.24223322 -0.13563354
0.33959103 -0.09130125 0.11978488 0.29747888 -0.64709276 -0.18804419 0.20897675 -0.6821788
0.16687413 0.1517291 0.04939632 -0.45331013 0.16631381 -0.49915442 -0.5552647 0.5291883
-0.0384695 0.010394701 0.015331174 -0.6809329 -0.0907532 0.7284277 0.061008543 0.34803736
-0.2340578 0.62327915 0.7007349 0.045692813 -0.6137392 -0.3027081 0.55551296 0.3435616
00000000: bbb9 d4ba 1c74 843d 0693 343d 1cd3 833c
00000010: 128a 113f f303 3a3f cb17 c0be ed7d f23e
00000020: d0d5 963e 258f 6e3c e64f bebd bf06 c2be
00000030: f470 853f b115 fa3e 004c 4dbd 1bb1 c03e
00000040: 230f 203d 6212 adbe c130 563e 715e 453e
00000050: e3aa b1be 6022 ecbe 25e2 483f c774 ec3e
00000060: 07d0 763d 77df 323f 4e4b d23e 7a37 9e3e
00000070: 70c4 213e eb44 44be fc0b 783e 85e3 0abe
00000080: e0de ad3e 26fc babd c651 f53d 274f 983e
00000090: dfa7 25bf a88e 40be 00fe 553e 45a3 2ebf
000000a0: 0de1 2a3e e05e 1b3e cc53 4a3d 4418 e8be
000000b0: 2b4e 2a3e 2b91 ffbe d425 0ebf e278 073f
000000c0: 3292 1dbd 894e 2a3c 9b2f 7b3c 9e51 2ebf
000000d0: d0dc b9bd 3d7a 3a3f 18e4 793d f431 b23e
000000e0: d9ac 6fbe 398f 1f3f 5d63 333f 6328 3b3d
000000f0: 031e 1dbf 8efc 9abe 1936 0e3f 4ee7 af3e

conv3.1.running_var f4 [64]
0.30454376 0.20288137 0.22668551 0.275214 0.2761962 0.2258776 0.24308802 0.33469915
0.32644463 0.25098234 0.2876424 0.2714719 0.2570743 0.27280572 0.30001113 0.23191935
0.18883681 0.27496177 0.31907782 0.36121547 0.29135865 0.25241768 0.3355568 0.40531185
0.2948517 0.26395795 0.28002232 0.2513122 0.23431624 0.23812537 0.3202857 0.28974497
0.23108219 0.24943031 0.2738929 0.27193573 0.29587677 0.21631727 0.27340153 0.27800933
0.31936052 0.2919835 0.28161007 0.28767553 0.25547707 0.25019932 0.2943902 0.42373115
0.24392545 0.29840946 0.2002559 0.3629087 0.27969134 0.32359412 0.32359943 0.2646322
0.2693547 0.2576373 0.297536 0.279288 0.27631515 0.29530334 0.41145885 0.35572857
00000000: 29ed 9b3e 22c0 4f3e 3f20 683e d9e8 8c3e
00000010: 9769 8d3e 754c 673e 11ec 783e b05d ab3e
00000020: c023 a73e c280 803e dd45 933e 5dfe 8a3e
00000030: 3e9f 833e 31ad 8b3e 0f9b 993e 447c 6d3e
00000040: 705e 413e cac7 8c3e 2b5e a33e 3cf1 b83e
00000050: f62c 953e e43c 813e 1ace ab3e 0985 cf3e
00000060: cdf6 963e 7f25 873e 165f 8f3e feab 803e
00000070: 99f0 6f3e 23d7 733e 7dfc a33e 7459 943e
00000080: cfa0 6c3e a96a 7f3e b13b 8c3e 293b 8b3e
00000090: 297d 973e 4682 5d3e 49fb 8b3e 3d57 8e3e
000000a0: 3983 a33e dc7e 953e 322f 903e 354a 933e
000000b0: e4cd 823e 201a 803e 50ba 963e 4af3 d83e
000000c0: 98c7 793e 20c9 983e e20f 4d3e 2bcf b93e
000000d0: b433 8f3e 21ae a53e d3ae a53e df7d 873e
000000e0: dce8 893e 09e9 833e a356 983e d6fe 8e3e
000000f0: 2e79 8d3e 0032 973e bcaa d23e 0e22 b63e

fc.weight f4 [10, 64]
0.12616934 -0.033985395 -0.43449894 -0.20199426 -0.6489241 0.040003568 0.05218616 0.3317551
-0.00198704 -0.4868437 0.4755787 0.38181263 -0.74389607 -0.3489753 -0.21889955 -0.6904974
0.5753466 0.32609454 0.39621142 -0.10873414 0.4430217 -0.30229715 -0.44888514 0.51943415
0.14739795 -0.35893628 -0.5034569 -0.836788 0.12674642 0.18846469 -0.059651878 0.5682876
0.36532688 0.14903767 0.3082834 -0.2733011 -0.24006982 -0.3715412 0.47848815 0.38098177
-0.22585057 0.195064 0.10233061 0.47241595 0.58351195 -0.378283 -0.48806632 0.07476648
0.37024596 -0.7974856 -0.38696775 0.6687522 -0.44770804 -0.47428897 -0.95649 -0.75955766
-0.45730776 -0.1959674 -0.1000133 -0.6891838 0.40342167 0.37412393 0.3571015 -0.37060496
-0.3589768 -0.1492863 -0.19914232 -0.12647681 -0.12394197 0.036299672 0.35634333 0.30199665
-0.19002485 0.15896556 0.13603342 -0.41556457 0.07902832 -0.09847898 0.29405108 -0.18307616
-0.45015374 -0.3777795 0.30105445 0.3509283 -0.6640629 -0.33627933 -0.3519292 0.010863048
0.3084247 -0.054259073 0.07379142 0.3814947 -0.1606521 0.18266968 -0.46902 0.23530567
0.16352478 0.2595117 -0.15744093 -0.43527842 -0.52347744 0.40236637 -0.027089763 -0.52087057
0.017393855 0.22272243 0.018561076 -0.15564458 0.27524632 -0.08539858 -0.20393588 -0.13604088
-0.5326228 0.4275764 -0.3043852 -0.15513478 -0.015946995 0.35129574 0.53650284 0.46014953
-0.18800263 -0.24506645 0.25999632 0.17806682 -0.33101103 0.3124928 -0.17237917 -0.2026248
0.51692605 0.25340667 -0.22768074 0.07425489 -0.17340516 0.2851205 -0.37180975 -0.122198306
-0.052961547 0.238217 -0.84635866 0.2483877 0.19587478 0.07930298 -0.69188005 0.46658078
0.15845668 0.42190975 -0.43339106 -0.1593247 -0.1732386 0.13978474 -0.61276394 0.1344517
-0.54599726 0.12713651 0.08234388 0.17432073 0.36803538 -0.51524806 0.012852135 -0.085202046
0.28608823 -0.20950425 -0.35749277 0.46392176 0.33075863 -0.20444429 0.14071786 -0.001482479
0.11489203 -0.3081759 -0.14608228 -0.35001892 -0.19209443 -0.43467733 -0.08902306 -0.10552471
0.04713733 0.045428686 0.56295466 -0.44613367 0.3391247 0.17925484 -0.3755472 0.1939077
-0.40902165 -0.18798111 -0.4017288 0.26621124 -0.6104626 -0.28779072 -0.18379912 -0.042947628
-0.0873644 -0.12258191 -0.20592566 -0.37624115 -0.1663371 -0.37716475 0.55111676 -0.44234043
0.22275105 0.061307166 -0.23376417 0.09203866 0.24536587 -0.5535985 -0.1528848 -0.0010175563
-0.19449669 0.43543854 -0.60905385 -0.1257247 0.27383044 0.30188665 0.08604533 0.36659926
-0.46688598 0.06109532 0.39835727 0.035325635 0.011762424 0.12024273 -0.01112827 -0.38533235
-0.39725256 -0.08608214 0.22517708 -0.5667113 0.17850187 -0.0076174997 0.28835735 -0.29914767
0.08091315 0.19808148 -0.35338253 -0.6256747 0.11280287 0.03803117 -0.6145891 0.297219
0.42485884 0.5513785 0.06172603 -0.6094666 -0.17724454 -0.61878866 0.44410253 -0.18680637
0.094263904 0.24425504 -0.44031417 0.4104052 -0.10649886 0.13111237 0.17177887 0.23711406
00000000: 8932 013e 4534 0bbd a576 debe 95d7 4ebe
00000010: e41f 26bf c8da 233d 28c1 553d cedb a93e
00000020: 0039 02bb 9443 f9be 0d7f f33e f27c c33e
00000030: f96f 3ebf e4ac b2be 3427 60be 70c4 30bf
00000040: ea49 133f ddf5 a63e 39dc ca3e 01b0 debd
00000050: bed3 e23e b1c6 9abe 46d4 e5be a3f9 043f
00000060: 7def 163e 7fc6 b7be 8de2 00bf bd37 56bf
00000070: d0c9 013e e3fc 403e 8755 74bd 4c7b 113f
00000080: 200c bb3e 559d 183e 52d7 9d3e 1fee 8bbe
00000090: ddd4 75be a63a bebe 66fc f43e 0b10 c33e
000000a0: 5f45 67be dbbe 473e b692 d13d 81e0 f13e
000000b0: 0a61 153f 4fae c1be d4e3 f9be 2b1f 993d
000000c0: e190 bd3e 0428 4cbf a320 c6be 5833 2b3f
000000d0: fd39 e5be 01d6 f2be 87dc 74bf 5f72 42bf
000000e0: 3e24 eabe aeab 48be c6d3 ccbd 596e 30bf
000000f0: 498d ce3e 2c8d bf3e 02d6 b63e efbf bdbe
00000100: cfcb b7be 82de 18be f7eb 4bbe 2383 01be
00000110: 4ad5 fdbd f7ae 143d a272 b63e 4e9f 9a3e
00000120: e095 42be dec7 223e 584c 0b3e e1c4 d4be
00000130: 9ad9 a13d 59af c9bd dd8d 963e 5178 3bbe
00000140: 8d7a e6be 516c c1be cf23 9a3e e0ac b33e
00000150: 0700 2abf ce2c acbe 1030 b4be edfa 313c
00000160: d8e9 9d3e c33e 5ebd f51f 973d 4653 c33e
00000170: fc81 24be c30d 3b3e 6423 f0be f8f3 703e
00000180: 0a73 273e b8de 843e 3238 21be d0dc debe
00000190: 9e02 06bf f702 ce3e 5aeb ddbc c657 05bf
000001a0: 8f7d 8e3c 5911 643e 660d 983c 4b61 1fbe
000001b0: 16ed 8c3e 73e5 aebd 91d4 50be 4d4e 0bbe
000001c0: f859 08bf 4beb da3e 60d8 9bbe a7db 1ebe
000001d0: 46a3 82bc 09dd b33e 4058 093f b898 eb3e
000001e0: c383 40be b3f2 7abe 3d1e 853e 2657 363e
000001f0: 477a a9be 0eff 9f3e 2a84 30be e07c 4fbe
00000200: 4455 043f 85be 813e 2425 69be f312 983d
00000210: 1f91 31be 50fb 913e d95d bebe 1b43 fabd
00000220: 35ee 58bd 28ef 733e f6aa 58bf 5859 7e3e
00000230: 6693 483e 9a69 a23d 0d1f 31bf ade3 ee3e
00000240: 7842 223e 8e04 d83e 6fe5 ddbe 0426 23be
00000250: 7665 31be bb23 0f3e 19de 1cbf b5ad 093e
00000260: 7ac6 0bbf 1330 023e e8a3 a83d 2281 323e
00000270: 226f bc3e 4ce7 03bf c391 523c 697e aebd
00000280: 287a 923e 4888 56be 4b09 b7be 2787 ed3e
00000290: 3259 a93e d859 51be 5818 103e be4f c2ba
000002a0: 834c eb3d 3bc9 9dbe 9896 15be ae35 b3be
000002b0: 67b4 44be 078e debe b951 b6bd 571d d8bd
000002c0: 1313 413d 6e13 3a3d cc1d 103f a26b e4be
000002d0: c1a1 ad3e 958e 373e b947 c0be bd8f 463e
000002e0: 496b d1be 1f7e 40be 66af cdbe d74c 883e
000002f0: 4747 1cbf 4e59 93be d635 3cbe dae9 2fbd
00000300: 1bec b2bd 390c fbbd 2dde 52be aea2 c0be
00000310: 4654 2abe bd1b c1be fd15 0d3f 727a e2be
00000320: da18 643e 391d 7b3d e05f 6fbe c47e bc3d
00000330: 3141 7b3e a2b8 0dbf d58d 1cbe 865f 85ba
00000340: 242a 47be cdf1 de3e f4ea 1bbf fabd 00be
00000350: 8133 8c3e e390 9a3e 8938 b03d e6b2 bb3e
00000360: ae0b efbe 163f 7a3d 7cf5 cb3e 9db1 103d
00000370: 2fb7 403c d241 f63d 5953 36bc 484a c5be
00000380: b064 cbbe d54b b0bd d294 663e fe13 11bf
00000390: 32c9 363e 389c f9bb 93a3 933e e229 99be
000003a0: cbb5 a53d dfd5 4a3e 8eee b4be 382c 20bf
000003b0: 3105 e73d 92c6 1b3d b655 1dbf 172d 983e
000003c0: 1987 d93e 2427 0d3f 6fd4 7c3d 0106 1cbf
000003d0: 987f 35be ef68 1ebf 6861 e33e 2b4a 3fbe
000003e0: 6f0d c13d fe1d 7a3e dc70 e1be a120 d23e
000003f0: 131c dabd 5242 063e cde6 2f3e 07ce 723e

fc.bias f4 [10]
0.16958116 -0.1644483 0.110631555 -0.034776423 0.06024837 0.04222181 -0.055883415 0.009572875
0.010939879 -0.021494161
00000000: afa6 2d3e 2365 28be cc92 e23d b971 0ebd
00000010: ffc6 763d c7f0 2c3d 02e6 64bd 8cd7 1c3c
00000020: 2e3d 333c 8614 b0bc
