Task2/model_hamming.pt (torch, 105971 bytes, 20 tensors)

conv1.0.weight f4 [16, 2, 3, 3]
000000 3b 95 4b 3e a0 86 d5 3d 5e 16 51 be 82 96 0c 3e
       0.19881146 0.10426068 -0.20418689 0.13729289
000010 d8 c0 8d bd 02 20 78 3d 64 b7 43 bd 82 75 2a be
       -0.06921548 0.0605774 -0.047782317 -0.16646388
000020 8b eb 3b 3e fd 26 6c be 2a 8a 4c be 0e 93 9a 3d
       0.18351571 -0.23061748 -0.1997458 0.0754758
000030 c1 69 e3 3d 1f 7a 0b be 4b 5c 2f 3e aa 64 dc bc
       0.11104155 -0.13620804 0.1712505 -0.02690347
000040 fa b6 8d bd 5c 60 ef bd fd 97 75 be 56 6e ce bd
       -0.06919666 -0.11688301 -0.2398376 -0.10079639
000050 72 6a 9b 3d 8b 82 ef 3d 41 cd 0a 3d af be 6d be
       0.07588662 0.11694821 0.03388715 -0.23217271
000060 7e 0b 76 3e b5 88 f5 bd 67 3b c6 bc 5f b7 23 3d
       0.24027821 -0.119889654 -0.024198247 0.0399698
000070 10 fe c1 bd 13 89 b2 bd 46 94 67 be 8c 6f 46 be
       -0.09472287 -0.08717551 -0.22615156 -0.1937849
000080 89 80 d7 3d 2f b9 06 bc 3b d6 16 3e d3 15 c8 3d
       0.10522563 -0.008222862 0.1473016 0.09769788
000090 11 56 91 3d c0 7a 41 3b c2 6e 1a be 34 26 dd bd
       0.07096494 0.0029522628 -0.15081313 -0.10798302
0000a0 cc 34 5b bd 27 5e 24 be 85 90 4b bd 64 2c 7f be
       -0.053517148 -0.16051541 -0.04969837 -0.24919277
0000b0 bc bd 61 3e 8e a8 07 be 9b f4 dd bd 9b 52 4e 3e
       0.22045034 -0.13247892 -0.108376704 0.20148699
0000c0 16 f1 97 bc 1e 6c 03 be f2 b8 5a 3e aa 77 6c bd
       -0.018547576 -0.12834212 0.21359614 -0.057731308
0000d0 63 70 28 3e 8a 01 44 be a4 dd d5 bd 6c bd 8b be
       0.16449122 -0.19141212 -0.10442665 -0.27292955
0000e0 80 d7 b4 3d 2e a7 33 be 0a 88 a0 3d 99 04 56 3e
       0.08830166 -0.17544243 0.078384474 0.20900191
0000f0 8e 52 4c bd d3 8d 5d bd d9 10 34 be 09 fc 08 bd
       -0.049883418 -0.054090332 -0.17584552 -0.033443484
000100 ed 7d 4b be 48 02 88 be 94 5f 43 be 8c a9 5c 3e
       -0.19872256 -0.2656424 -0.19079429 0.21549052
000110 cc 19 03 3e 0a 62 c6 3d 02 02 0a 3e db 27 1f 3e
       0.1280281 0.09686668 0.13477328 0.15542547
000120 f0 22 66 be 07 e2 40 be ab 2a 1a 3e 28 67 ee 3d
       -0.22474265 -0.18836223 0.15055339 0.11640769
000130 ba 2e 7e bd de 71 f2 bd d7 18 72 3e 7c 3a 5d 3e
       -0.06205628 -0.11838125 0.23642288 0.21604341
000140 ce 9a e3 bd ae 8d 25 be 15 6c 8c 3d cd d8 a2 bd
       -0.11113511 -0.16167328 0.068565525 -0.07951508
000150 9e 1c 09 be 65 1c 5f bb 09 f2 f1 bc 89 e5 2d 3e
       -0.13389823 -0.0034044024 -0.029534357 0.16982092
000160 34 68 c1 3c e0 d6 3e be 6b 8f aa 3d 50 b7 d7 3d
       0.023609258 -0.18636656 0.08328136 0.10533011
000170 67 8c 3f 3e ab c4 b8 3d 11 65 1c be fa bb 4c 3e
       0.18705903 0.090218864 -0.15272929 0.19993582
000180 8f ae 2e be f5 0f d7 bd 46 f6 4e be 69 e1 57 3c
       -0.17058776 -0.105010904 -0.20211133 0.013176301
000190 30 df 0d 3e e7 ab 19 3e 73 5b 82 bd 33 2d 77 bb
       0.1385467 0.15006982 -0.06365099 -0.003771615
0001a0 b5 8e 4d be de c4 f1 bd 40 cd 00 bd c4 71 33 be
       -0.2007397 -0.118051276 -0.03144574 -0.17523867
0001b0 01 35 81 bd 9f 34 40 bd 5c f8 0b be 42 98 0f 3e
       -0.06308938 -0.046925183 -0.1366896 0.14022925
0001c0 58 f2 d5 bd 15 75 cd bd a9 13 4b 3d 78 01 86 3c
       -0.10446614 -0.10032097 0.049579296 0.016358122
0001d0 85 dd d9 bd 52 64 3a 3e 7a e0 72 3e 0f 9d dd ba
       -0.106379546 0.18202332 0.23718444 -0.0016907769
0001e0 77 29 b4 3c 73 69 e2 3e cc 42 44 3d 72 a6 e9 3c
       0.021992428 0.44221076 0.047915265 0.02852175
0001f0 05 8f 51 3e 44 ca c6 3c 17 b2 8a 3e 71 c2 bd 3a
       0.20464714 0.02426637 0.27088997 0.0014477504
000200 4b 6b 6f be de 41 d2 bc fd 61 9f 3c 94 34 89 bd
       -0.23380773 -0.025666174 0.019455904 -0.066994816
000210 a9 b5 1e be 37 23 61 bd 62 33 57 be 69 34 80 3e
       -0.15498985 -0.054965224 -0.21015695 0.25039986
000220 5b 80 88 3c 57 47 2e 3d 2e bc ad bd ac 92 28 3e
       0.016662767 0.042548504 -0.08483158 0.16462201
000230 e0 12 94 bd a0 d7 5f bd 1f 3c 3c bd 93 b6 37 be
       -0.072301626 -0.054648995 -0.045955773 -0.1794074
000240 fd d8 dd bd 93 1b 98 bc 01 9a 39 bd 5c 37 6f 3e
       -0.10832403 -0.018567836 -0.045312885 0.23360962
000250 e3 16 5b be 21 d0 b8 bc e8 d5 e6 3d c4 dc 83 3c
       -0.2139545 -0.022560181 0.11271268 0.01609648
000260 2c 51 b6 bd 17 63 2d 3e d9 47 ef bd 2b 77 93 bd
       -0.08902201 0.16932331 -0.11683626 -0.07200464
000270 b8 c9 3c 3e ca a3 ed 3c a8 ea 19 be ed 73 97 3d
       0.18436325 0.029008765 -0.1503092 0.07395158
000280 93 69 31 be b0 63 04 bd 82 e8 71 bd c6 98 4a 3e
       -0.1732543 -0.032321632 -0.059059627 0.19784841
000290 8a f4 46 be 1b 8a 3b 3c 9b a4 22 3e 81 13 40 bd
       -0.19429222 0.011446501 0.15883105 -0.0468936
0002a0 89 20 19 be 33 06 98 3e 5f 3a 07 be e4 e0 40 be
       -0.14953817 0.2969223 -0.1320586 -0.18835789
0002b0 a0 f7 3d 3e 67 7e 58 be a0 8a 04 be d3 dd 34 3e
       0.18551493 -0.21141969 -0.12943506 0.17662744
0002c0 2b a2 40 be c9 53 0a bd c9 75 80 3e 5d 2b af 3c
       -0.18811862 -0.03377131 0.25089863 0.021382982
0002d0 ef 12 c9 bd 1c 01 27 be 80 bf 40 3d 14 f2 f1 bd
       -0.098180644 -0.16309017 0.04705763 -0.11813751
0002e0 0b f0 81 bb 7e d3 3e 3e 7b 2c 21 be 89 c7 68 3d
       -0.003965383 0.18635365 -0.15739624 0.056830917
0002f0 77 f6 cd 3d ea 57 4c bd 8e 6f 07 3d 1f a1 4a bc
       0.10056775 -0.04988853 0.03306537 -0.012367516
000300 c1 a8 3f be 26 b0 30 be 93 ff b7 3d 0b da 18 be
       -0.18716718 -0.17254695 0.08984294 -0.14926927
000310 44 19 3b bd 57 e7 ec 3d 76 8c ad 3d 07 f3 eb 3d
       -0.045678392 0.11567562 0.084740564 0.11520963
000320 47 1c be bc d6 f0 38 3e 39 38 d6 3d 78 0d c4 3c
       -0.023206843 0.18060622 0.10459942 0.023932204
000330 be 9b 16 be b6 03 8b bc 23 66 a0 be cf 52 d4 bd
       -0.14707848 -0.016969543 -0.31327924 -0.10367357
000340 46 64 72 bc c0 7c 0b be 1e c5 2a be a6 dc 3b be
       -0.014794415 -0.13621807 -0.16676757 -0.1834589
000350 a5 75 08 be 65 41 8f 3e 41 78 51 bb 86 78 79 3e
       -0.13326128 0.2797958 -0.0031962546 0.24362382
000360 05 5c 98 bd f1 63 b9 3d 1d 5a 57 3d 49 74 6e be
       -0.07439426 0.090522654 0.052576173 -0.23286547
000370 d0 e3 80 3e d6 fe 6d bd 18 bd 53 be 19 8e 8c 3d
       0.25173807 -0.05810436 -0.20677602 0.068630405
000380 dc 6e 34 3d 3b c6 59 be e3 ab b5 3c a1 25 73 bd
       0.044051036 -0.21267025 0.022176689 -0.059362058
000390 e7 f2 a2 bd f5 da fd 3d 38 8b 23 be 24 64 25 be
       -0.07956486 0.12395278 -0.15971076 -0.16151482
0003a0 34 08 ce ba 15 fa 53 3e cc dc 1e be 39 2c 9f ba
       -0.0015718997 0.20700867 -0.15513915 -0.0012143917
0003b0 26 bc 20 3d 68 ff 28 3e 9e f1 db bc 20 e2 a6 3d
       0.039241932 0.1650368 -0.02684861 0.08148599
0003c0 a1 d3 2b be bf 0d 41 be 1c bc 5c be 7c 35 61 be
       -0.16779949 -0.188529 -0.21556133 -0.21993059
0003d0 07 29 73 3d 5d c4 86 3d d3 82 37 3e fd 02 e6 3d
       0.0593653 0.06580422 0.17920999 0.11231039
0003e0 53 ae 52 3e 62 7c 30 be 3b b2 81 be 99 73 8a 3d
       0.20574312 -0.17234948 -0.25331292 0.0676033
0003f0 03 5e 1d be 26 1f 28 3e 87 90 20 3e 6c f5 fc bd
       -0.15367894 0.16418132 0.15680133 -0.12351498

conv1.0.bias f4 [16]
000000 4d 6b 03 be 8c b7 c2 3d 83 4f 1d 3e 78 38 7a 3e
       -0.12833901 0.09507665 0.15362363 0.24435604
000010 6a 3e c2 bd e8 64 79 be 7e 78 17 3e 12 e0 f5 bd
       -0.09484561 -0.24354899 0.14792058 -0.12005629
000020 05 5b 52 3d c5 2b 22 3e 14 e4 f1 bd bd 6b 0c bd
       0.051356334 0.15837009 -0.118110806 -0.034282435
000030 82 8d 4b bc f6 47 f1 bd 51 59 09 3e 2e 8a fd bc
       -0.012423875 -0.117813036 0.13412978 -0.030949678

conv1.1.weight f4 [16]
000000 19 e7 69 3f 0b 37 80 3f 7b ec 81 3f e5 7a 81 3f
       0.9136825 1.0016798 1.0150293 1.011563
000010 70 f1 85 3f 04 7f 93 3f f5 eb 2c 3f bd da 8a 3f
       1.0464306 1.1523137 0.6754754 1.0848004
000020 05 09 a9 3f 8a 26 5b 3f ac d1 88 3f c7 cd 73 3f
       1.3205878 0.8560568 1.0688987 0.95235866
000030 6a 06 8e 3f b9 48 85 3f e1 8a 75 3f 7e 7f 96 3f
       1.1095707 1.0412818 0.9591504 1.1757658

conv1.1.bias f4 [16]
000000 d0 23 a3 3d 22 c6 78 be d7 a3 d8 bd 41 4c ad bd
       0.07965815 -0.24294332 -0.10578125 -0.0846181
000010 fd dc 32 be 9a fa fa 3c 29 6c fc bd 6a 17 72 be
       -0.17467113 0.030637074 -0.123253174 -0.23641744
000020 28 ff 5d bd ba 8d 54 be 0a 80 34 be 99 b2 5c be
       -0.054198414 -0.2075719 -0.17626968 -0.21552505
000030 84 c1 a2 bd 40 83 b3 bd d8 3a 63 3e a9 87 f8 3c
       -0.079470664 -0.08765268 0.22190416 0.030338125

conv1.1.running_mean f4 [16]
000000 af 8f 38 be bd 1f 92 bc c7 a2 ca 3c 94 8d 15 3e
       -0.18023561 -0.0178374 0.024735821 0.14604789
000010 a8 d9 2d be be d0 9b be fd 2b b1 3e eb 04 60 be
       -0.1697756 -0.30432695 0.34603873 -0.21876876
000020 2a 12 45 ba 2a 6d 1c 3e c2 bf 7a be fb cc aa bd
       -0.000751766 0.15276018 -0.24487212 -0.08339878
000030 75 a5 d4 bd af 04 5e be 62 a8 a0 3d 51 7c c7 bd
       -0.10383121 -0.21681474 0.078446165 -0.09740508

conv1.1.running_var f4 [16]
000000 b8 69 45 3c 77 11 01 3d 3f 54 09 3d 9c 8f 19 3d
       0.012049131 0.031510796 0.03352761 0.037490472
000010 d4 f6 c6 3c 76 77 ec 3c 73 38 a9 3d a9 dc 1d 3d
       0.024287619 0.028865557 0.0826272 0.038540516
000020 8b 30 ae 3c 6d 94 8e 3c 74 76 3f 3d c3 a3 29 3c
       0.021263381 0.01740476 0.046743825 0.010353985
000030 f5 d0 f6 3c 6e 04 2c 3d f1 7f 08 3d 80 ac f1 3c
       0.030128935 0.041996412 0.03332514 0.0295012

conv2.0.weight f4 [32, 16, 3, 3]
000000 f3 43 97 3a de c8 02 3e 2a a6 97 3c 84 e0 b8 bd
       0.0011540636 0.12771937 0.01851185 -0.09027198
000010 2a 2e ee bc ab 5c de bd 49 08 5b ba fe f0 4f 3a
       -0.029074747 -0.10857519 -0.00083554216 0.0007932334
000020 cb a2 a7 bd 62 a1 4a bc 87 d1 b6 bd af d1 9b bd
       -0.08185347 -0.012367578 -0.08926683 -0.07608353
000030 e2 b6 29 bc 99 d8 01 bd 63 5d e2 bd d6 14 2e bd
       -0.010358544 -0.031700704 -0.11052968 -0.04250034
000040 da 7d 6e 3d c3 eb 12 bd c5 e4 02 3e ef 59 1c bb
       0.05822549 -0.03586937 0.12782581 -0.0023857316
000050 e4 fd ac 3d b8 98 21 3d f0 1d 53 bc 81 59 53 3c
       0.08446863 0.039452285 -0.012885556 0.012899757
000060 00 1e c0 ba 3a 45 30 3d 2a 5d 46 bd 26 1b 03 bd
       -0.0014657378 0.04303477 -0.048428692 -0.032008313
000070 4e d7 97 bd f7 bb bd 3d 2e f0 6c 3d d9 ef 40 be
       -0.07414113 0.09264367 0.05784624 -0.18841495
000080 14 c2 dc bd 81 a5 c2 3d 79 71 16 be 29 e5 eb bd
       -0.10779205 0.095042236 -0.14691724 -0.11518318
000090 4e d7 b3 bd e0 af 15 3c 60 e6 3f 3a a3 d9 2b be
       -0.087813005 0.00913617 0.00073204003 -0.1678224
0000a0 08 c0 1b 3e db 61 1a be 8a f1 30 3d e7 dc 0f be
       0.15209973 -0.15076391 0.0431991 -0.14049111
0000b0 4d 6c 1e 3d 9b 2f 02 be d0 a0 ce be 72 3c e2 bd
       0.038677502 -0.12713473 -0.40357065 -0.11046685
0000c0 9a 70 3d be 17 48 e8 be 5c 27 4f bc 99 29 e6 bd
       -0.18499985 -0.453675 -0.012643661 -0.11238403
0000d0 20 52 9c bd d5 ad 0b bd 26 83 be bd 89 a4 84 bc
       -0.076328516 -0.034101326 -0.09302358 -0.016191738
0000e0 be 74 b7 3c cf 06 22 3d 5c e6 fa 3c d7 d0 39 bd
       0.022394534 0.039557274 0.030627422 -0.04536518
0000f0 1d 5b 1f bd 4e 78 39 3d c9 8b c6 bb 2f dd 0e be
       -0.03890525 0.045280747 -0.006059144 -0.13951562
000100 91 d3 40 bd 18 59 03 3e 35 ab 0e bd b3 ec 36 bd
       -0.047076765 0.12826955 -0.034831244 -0.044659328
000110 f0 30 33 3c e4 4d 56 bd e4 fc 32 be 10 fc a5 3c
       0.010936961 -0.052320376 -0.17479283 0.020261794
000120 9e 18 35 be aa fe fd 3d b8 e8 c2 bb 23 c1 c4 bd
       -0.17685172 0.12402089 -0.0059481524 -0.096071504
000130 9e 6d b2 3c 52 a6 15 be 23 07 e0 3c 5b 39 a4 bc
       0.021780785 -0.14614227 0.027347153 -0.02004688
000140 55 a9 04 be 9e 81 64 bd 49 fa 37 bc 31 f3 a9 bd
       -0.1295522 -0.055787675 -0.011229106 -0.08298338
000150 0c bb 11 bc a1 b8 0e 3d 27 8a 02 be a3 9b d6 bc
       -0.008894693 0.034844045 -0.12748013 -0.02619726
000160 c3 ae 03 3e 62 74 a2 3a 67 79 2a 3e 92 49 fa 3d
       0.12859635 0.0012394304 0.16647874 0.12221064
000170 54 58 aa bd 58 ad ff 3d e9 1f 7f 3d 80 de cb bd
       -0.083176285 0.124842346 0.06228629 -0.09954548
000180 00 49 82 3d 15 3c 8f 3d 78 27 c4 bd db 42 6d bd
       0.0636158 0.069938816 -0.095778406 -0.057925086
000190 e2 58 d3 bc 16 73 6a bd 3c 1a 2f be e9 2a ac bd
       -0.025799219 -0.05723866 -0.17099851 -0.08406622
0001a0 ea 20 6d 3d b5 06 48 bd 7b aa 10 3c ae bd d8 3c
       0.057892717 -0.04883452 0.008829708 0.026457634
0001b0 46 30 c8 bc 52 d4 2d bd d4 84 b9 3c 95 4d b3 3c
       -0.024437081 -0.042438813 0.022646345 0.02188758
0001c0 17 ad de bb c5 b8 8f 3d aa 53 b5 bd 78 e0 0b bd
       -0.0067955363 0.07017664 -0.08853848 -0.034149617
0001d0 26 4b 78 3d f2 8b 42 3a 8a e7 0b be e3 6e 31 be
       0.060618542 0.0007421366 -0.13662544 -0.17327456
0001e0 6c 23 0a be 20 62 a7 bd 75 7d ad 3c 63 7f 41 bc
       -0.13490075 -0.08173013 0.021177987 -0.0118101565
0001f0 c5 07 db 3d fd 3d 9c bd a1 d5 98 bc dc 9d bd 3d
       0.10694841 -0.07629011 -0.018656554 0.09258625
000200 f6 64 79 be 62 86 83 3d 1b 53 89 bd 8c 3a fa bd
       -0.2435492 0.06422116 -0.06705304 -0.12218198
000210 56 ca 19 bd 5f f5 91 bd 90 45 dd bc 30 e4 70 bd
       -0.03754648 -0.07126879 -0.027010709 -0.058811367
000220 be 10 ed 3d 91 d3 a8 be d2 44 86 3d df dd 9f be
       0.11575459 -0.32973912 0.06556095 -0.31223962
000230 21 ae cf 3b f7 a5 0d 3e 30 fb 94 bd ac 00 8f be
       0.0063378965 0.13832842 -0.07274473 -0.279302
000240 44 d5 02 bd 80 90 05 3e fb 56 39 bb e4 a1 03 be
       -0.031941667 0.13043404 -0.0028280604 -0.12854725
000250 80 12 1d bd a0 e9 c7 bd 28 80 0d be e7 5d f0 bc
       -0.03834772 -0.09761357 -0.13818419 -0.029341651
000260 59 a5 30 bd 02 93 95 3d a5 1d aa 3d 75 cd 1d bd
       -0.043126438 0.0730343 0.083064355 -0.038526017
000270 f1 5b 85 3d 4b c6 13 3d cc 15 cc 3d cd 9e 87 3d
       0.06511677 0.03607778 0.09965095 0.06622086
000280 fd f5 34 bd e4 d8 72 3d 6e d3 2f 3d 70 d3 c7 3d
       -0.044179905 0.059288874 0.042926244 0.097571254
000290 06 cf 5d bc 72 6d a4 3d fe 35 5b 3d fc 37 da 3d
       -0.013538128 0.080286875 0.053518288 0.106552094
0002a0 32 ae dd bd a6 90 4c 3d dc 17 09 bb 80 ab 48 3e
       -0.10824241 0.049942635 -0.0020918762 0.19596672
0002b0 a3 fd d7 3b 67 2e 4e bc e2 64 9e bb 2b 86 d4 bd
       0.006591515 -0.012584305 -0.0048338035 -0.10377153
0002c0 64 a2 31 ba 29 50 1a 3e f5 5f 4f 3b 09 94 27 3e
       -0.0006776212 0.15069641 0.0031642888 0.16365065
0002d0 a4 3e a4 bd 91 bc 36 bc 77 0e e3 bd 35 42 18 be
       -0.0801976 -0.011153356 -0.11086743 -0.14869006
0002e0 ef a2 b5 bd a8 a2 8c 3d 95 b0 4b 3c c9 b1 f1 bd
       -0.08868968 0.06866962 0.012432237 -0.11801488
0002f0 05 e0 85 3d c0 08 bc bd 2e 38 06 3d 70 16 3a bd
       0.06536869 -0.091813564 0.03276842 -0.045431554
000300 ce 73 18 3d e7 e1 5c bd 77 ca 34 bd a9 a7 d2 bd
       0.037219815 -0.053926375 -0.044138398 -0.10285885
000310 1b ce ad bd 19 9e 22 be ae f5 c0 3b 78 7b 42 3d
       -0.08486577 -0.15880622 0.0058886623 0.04748103
000320 e9 14 d5 bd d3 48 0d 3c b0 71 57 3d 3e 3c 9c bd
       -0.10404379 0.00862332 0.052598655 -0.07628678
000330 7f 83 dc 3b f8 e5 92 bd 7b 63 cd bc 47 6b 90 bd
       0.0067295427 -0.07172769 -0.02507185 -0.070517115
000340 07 4f 90 bd 45 f5 04 3c cc 83 97 3d 9d f6 0d be
       -0.07046323 0.008115117 0.07398185 -0.13863607
000350 f0 f7 eb bd 0f 8b e9 bd d6 c2 df bd 9e 19 1f be
       -0.115219 -0.114034764 -0.10925834 -0.15537116
000360 74 17 b6 bc f0 dc 83 be 6c 00 1a bc 86 55 fa bc
       -0.02222798 -0.257545 -0.009399515 -0.030558359
000370 55 d5 8c be 17 99 79 3d e0 40 2d be ce 8b a1 be
       -0.2750651 0.060937013 -0.16919279 -0.31551975
000380 6f e8 a4 3d ae 14 f4 3c 41 43 00 be 5e b4 36 3d
       0.08052146 0.029795017 -0.12525655 0.044605605
000390 15 3a 91 3d cf e8 88 bd 45 2c b9 3d e9 4c b0 bd
       0.070911564 -0.0668503 0.09041647 -0.086084194
0003a0 bf fe ee bd fe 91 5e 3d 3f 0e e6 3d b1 19 de bc
       -0.11669683 0.054338448 0.11233186 -0.02711186
0003b0 57 39 fd bd 81 66 6b 3d d9 03 3c 3d 08 95 a8 bd
       -0.12364452 0.057470802 0.045902107 -0.082315505
0003c0 cd 5d 57 bd 72 21 c5 3c e5 9f 1a 3c 07 41 c5 39
       -0.05257969 0.0240638 0.009437536 0.00037623217
0003d0 17 83 91 bb 18 29 bb 3c 34 8d 21 3b 9b 0a 91 bd
       -0.004440676 0.022846743 0.0024650814 -0.07082101
0003e0 68 7d 87 bc 7a fc d3 3d f4 82 b2 bd f1 f4 02 3d
       -0.01653929 0.103508905 -0.087163836 0.031971876
0003f0 fa fe 64 3d 1b 44 5b bb ec 46 f0 3d 9d 7f 12 3e
       0.055907227 -0.0033457342 0.11732277 0.14306493

conv2.0.bias f4 [32]
000000 48 dc ef bc 65 6a 82 bd 77 b6 28 3e df 3c 50 bd
       -0.029279843 -0.063679494 0.16475855 -0.0508393
000010 f5 f7 bc 3d 61 4d dc 3c f3 34 db 3d da 3b c9 bc
       0.092269816 0.026892366 0.10703459 -0.024564672
000020 2f e1 d9 3d 88 ff e6 bd 65 50 62 3d 6b 99 c8 bd
       0.106386535 -0.112792075 0.05525245 -0.09794887
000030 d2 1e c6 3d f1 f3 20 3e 61 80 5d 3c 1a 81 40 3d
       0.09673847 0.15718056 0.013519377 0.04699812
000040 eb 71 67 3d 81 4a 63 bd 19 5a be bd 9c 14 5b bc
       0.056505125 -0.055490974 -0.092945285 -0.013371613
000050 b8 b5 1b bd 4e 87 cf 3b aa a0 46 bd 81 dd 93 bd
       -0.038015097 0.0063332682 -0.048493065 -0.07219983
000060 08 8d a9 3d 55 80 51 3d 59 a9 84 3d 78 b7 b6 3c
       0.08278853 0.051147778 0.06477613 0.022304282
000070 c5 a9 4e 3d eb 86 85 3d f6 8c ed 3b 38 9b ce 3b
       0.050454874 0.06519874 0.00724947 0.0063051246

conv2.1.weight f4 [32]
000000 00 bb 82 3f 7c d9 79 3f 72 40 7b 3f 39 13 7e 3f
       1.0213318 0.9759748 0.9814521 0.9924808
000010 01 9b 82 3f ff 6d 75 3f 8a a9 5f 3f 2d 67 8b 3f
       1.0203553 0.95870966 0.8736807 1.0890862
000020 95 6c 83 3f 77 cc 48 3f 8f 11 7f 3f 2e e8 87 3f
       1.0267512 0.7843699 0.9963617 1.0617731
000030 78 62 89 3f 0f c8 34 3f 99 4b 60 3f 5d 11 5c 3f
       1.0733175 0.70617765 0.8761535 0.85963994
000040 94 52 89 3f dd 77 66 3f b9 42 84 3f 95 a0 73 3f
       1.0728326 0.90026647 1.0332862 0.95166904
000050 5a 90 7d 3f d2 17 4d 3f 48 f0 36 3f 21 c4 80 3f
       0.9904839 0.8011447 0.7146039 1.0059854
000060 42 f2 86 3f b3 61 83 3f e4 f1 4c 3f ec db 8e 3f
       1.0542681 1.026419 0.80056596 1.1160865
000070 b4 12 90 3f 85 d3 84 3f a9 2a 73 3f 0a f9 66 3f
       1.1255708 1.0377051 0.9498697 0.90223753

conv2.1.bias f4 [32]
000000 16 70 35 be a2 f7 41 be ad a0 a7 be a3 05 37 be
       -0.17718539 -0.1894212 -0.32739773 -0.17873244
000010 3a 3d b6 be 06 6c dc be d6 ac b9 be 95 ab bb be
       -0.35593587 -0.43051165 -0.36264676 -0.36654344
000020 6f bf 16 be 9e 84 be be 67 0b 03 be 97 4a 6f be
       -0.14721464 -0.37210554 -0.12797318 -0.23368298
000030 a7 3c 81 be ce 1c d3 be 0f a0 d4 be ee b0 91 be
       -0.25241587 -0.41232914 -0.41528365 -0.284553
000040 76 47 92 be 9c fb c3 be 62 4b 4f be 9d 5e cc be
       -0.28570145 -0.382779 -0.202436 -0.39915934
000050 34 c3 0e bf d7 5e 02 bf ec 6b 18 bf ab 2a b2 be
       -0.55766606 -0.50925964 -0.59539676 -0.34798178
000060 25 61 8c be e6 4a f8 be 0d 3b ff bd 9d 34 a4 be
       -0.27417865 -0.48494643 -0.12462435 -0.3207139
000070 1d ea b4 bd 0e ca 4b be 41 c1 c2 be a6 5b 40 be
       -0.08833716 -0.19901296 -0.38038066 -0.18784961

conv2.1.running_mean f4 [32]
000000 76 78 2b c0 24 dc a5 bf 80 47 96 bf d7 60 00 c0
       -2.6792274 -1.2957807 -1.174057 -2.0059106
000010 3b 2c af bf f2 c2 97 be a4 52 04 bf 2a a5 b9 bf
       -1.3685373 -0.2964092 -0.516886 -1.4503529
000020 35 22 01 bf 04 19 2e bf 75 b8 71 bf 9c 9f a5 bf
       -0.5044282 -0.6800692 -0.94422084 -1.2939334
000030 e8 00 c2 bf a1 d2 8d bf 25 ed 53 3b a6 5e df bf
       -1.5156527 -1.1079904 0.0032337394 -1.745076
000040 c9 99 a0 bf fe 6a 92 be b5 f4 91 bf 81 ff 0c bf
       -1.2546932 -0.28597254 -1.1402804 -0.5507737
000050 a3 62 6f bf fd d9 33 3f 75 b3 d1 3f 81 91 9d bf
       -0.9350988 0.702545 1.6382891 -1.2310029
000060 1c 07 be bf 2d 93 ab bf df 7c 9b be 44 e3 10 c0
       -1.484592 -1.340429 -0.30368707 -2.2638712
000070 4d 74 1f c0 52 56 79 bf 60 c1 98 bf ad 4e 4b bf
       -2.4914734 -0.9739734 -1.1934013 -0.79416925

conv2.1.running_var f4 [32]
000000 93 18 b4 3f e1 72 8e 3f 56 c8 48 3f 39 fd 61 3f
       1.407 1.1128808 0.7843069 0.8827701
000010 65 bf 41 3f ca 54 87 3f 20 e7 4f 3f e0 7e 43 3f
       0.7568267 1.057275 0.81212044 0.7636547
000020 da c9 22 3f a8 56 69 3f 3f d5 54 3f b6 6e 6b 3f
       0.6358925 0.9114785 0.8313789 0.91965806
000030 05 c7 96 3f f0 f5 22 3f 24 56 20 3f a4 f7 91 3f
       1.1779486 0.6365652 0.6263144 1.1403699
000040 23 90 b3 3f 39 57 56 3f 4f cb 93 3f d9 bd 27 3f
       1.4028362 0.8372684 1.154642 0.6552406
000050 fa 9d 6e 3f 17 9a 2d 3f 75 53 0b 3f 05 25 64 3f
       0.93209803 0.6781325 0.5442422 0.8911899
000060 2f 49 a7 3f bd 47 28 3f 82 10 8b 3f e8 40 9e 3f
       1.3069209 0.65734464 1.0864413 1.2363558
000070 fb d9 01 40 d4 28 75 3f 63 dc 31 3f 37 00 33 3f
       2.0289295 0.95765424 0.6947691 0.699222

conv3.0.weight f4 [64, 32, 3, 3]
000000 2e fa 9e bd fd 7b a2 bd 7b 6d 50 be 6d 45 71 bd
       -0.07762562 -0.07933805 -0.20354263 -0.0589041
000010 6a 4a 63 bd d7 3c f3 bd 27 c4 9e 3d 99 3b ae 3d
       -0.05549089 -0.11876839 0.07752257 0.08507461
000020 b8 e3 0a 3c ab ed d2 3c 21 4b db bc 5d 12 0d bd
       0.008477144 0.025748095 -0.026769223 -0.03444134
000030 d6 12 da bc 0f 70 8d bd 45 c8 c4 bd e3 8c 8a 3c
       -0.02662031 -0.06906139 -0.09608511 0.016912883
000040 2d 7a 1a 3c 2a 3d 99 bb ed 00 9c 3d a6 7b b5 3d
       0.009428543 -0.004676481 0.07617364 0.08861475
000050 6a d0 e8 3d e5 c1 29 3d 97 00 1e 3d c8 ad b5 bd
       0.11367877 0.041444678 0.03857478 -0.08871037
000060 e2 79 b3 bd c8 ed 11 3c e0 41 00 be b5 d7 0c 3c
       -0.08763482 0.008906789 -0.1252513 0.00859635
000070 a7 bc 81 bd 7f ba 2e 3d 86 cb d7 b9 45 10 89 bd
       -0.06334811 0.042658325 -0.00041159632 -0.06692556
000080 d8 5b fd 3c a5 c2 5b 3c 50 06 14 3d 92 86 b0 bc
       0.030927584 0.013413106 0.036138833 -0.021548543
000090 12 f1 02 3e 8f 8d fe 3d f0 2d d8 3d 23 65 48 3e
       0.12787274 0.12429344 0.10555637 0.1956983
0000a0 63 3a 52 3e d9 28 68 3e 71 b5 bd 3d 1e 46 af 3d
       0.20530085 0.22671832 0.09263123 0.08558296
0000b0 e9 16 a4 3d 09 52 b3 3d 17 11 06 3d 6a df 60 3d
       0.08012182 0.08755881 0.032731142 0.054900564
0000c0 40 8a f6 3d 3b 3b bd 3d 42 03 a7 bc c9 9b 88 3d
       0.12038088 0.09239813 -0.020387296 0.06670339
0000d0 54 4b 0f 3b 20 7a ca bd 44 c1 e7 bc bf 39 84 3c
       0.0021864967 -0.09886575 -0.028290398 0.016140817
0000e0 93 42 af bc 7d a3 c7 bc 8a 50 20 bd 39 0c 1e ba
       -0.02139405 -0.02436995 -0.039139308 -0.0006029043
0000f0 40 4d 8f bc 85 99 6a 3c e2 82 bb 3c 3d cc ee 3d
       -0.01749289 0.0143188285 0.022889558 0.11660049
000100 c7 ab de 3c e6 7c 91 3d 33 de 34 3e ad 66 00 3e
       0.02718152 0.071039006 0.17662887 0.12539168
000110 99 fb 48 3d 60 e1 0e 3e b9 25 12 3d 64 c1 25 bd
       0.049068067 0.13953161 0.035680506 -0.040467635
000120 c7 19 af bb e9 32 36 3d 43 31 bb 3d b3 68 4a 3d
       -0.005343649 0.044482145 0.09140255 0.049416255
000130 15 16 6e bd b6 a3 ef bc e6 6c 81 3c bd 9a e3 bd
       -0.058126528 -0.029252868 0.015798997 -0.11113498
000140 1e c2 b7 bd b2 53 12 bd ff 98 68 3d c9 23 47 3d
       -0.08972572 -0.03572435 0.056786533 0.04861811
000150 6a 7e 42 bd 94 90 06 3d f7 c5 74 bc 62 a1 8a bd
       -0.04748384 0.032852724 -0.014939777 -0.067690626
000160 80 5a 87 3c 68 76 f6 3c ca 44 4a 3d a4 c6 75 3b
       0.016522646 0.030085757 0.04938201 0.0037502432
000170 7f 47 51 bd b7 58 3b bb d4 9d 90 3d ff f3 9e 3d
       -0.051093575 -0.0028586814 0.07061353 0.07761382
000180 31 2a d4 3b a6 e2 88 3d c3 c4 e9 3b 40 47 12 3d
       0.006474756 0.06683855 0.0071340515 0.03571248
000190 c5 37 76 3d e5 77 71 3d c2 17 04 be e1 67 04 bc
       0.06011178 0.05895223 -0.12899688 -0.008081407
0001a0 7a aa 2f 3c dc 1c 85 3d 53 3f fd 3d 1f 3d 14 3e
       0.010721797 0.06499645 0.12365594 0.14476441
0001b0 b8 c3 f7 3d a0 09 8e bd eb 6c 90 3d e5 ff 37 3d
       0.12097877 -0.069354296 0.070520245 0.044921774
0001c0 5f bd 2c bd 11 0c 83 3c c5 00 d6 3d e9 8e 28 bd
       -0.042172786 0.015996965 0.104493655 -0.041151915
0001d0 96 43 c3 3d 10 c7 2d bd c0 52 9c 3b 3b 9d 02 be
       0.09534375 -0.04242617 0.0047706068 -0.12755291
0001e0 72 fc 19 bd fd f7 6a 3d 3a 96 2c 3c 8c 8a b5 3d
       -0.037594266 0.057365406 0.010533864 0.08864316
0001f0 f3 d3 47 3d e7 a3 45 bd 58 9a ae 3c c9 95 b2 3d
       0.048786115 -0.048252013 0.021313831 0.087199755
000200 c2 8a 52 3d 58 a3 f6 bd 0a f4 8b 3c 47 46 7b bd
       0.05140186 -0.12042874 0.01708414 -0.06134632
000210 46 bc a1 bd e1 90 70 bd ac f7 f2 3b 7a e3 4a 3d
       -0.078972384 -0.058731917 0.0074147787 0.049533345
000220 10 cc 6e bc 78 aa 25 3d 14 e5 1f 3d de b2 51 3d
       -0.0145750195 0.040445775 0.039036825 0.05119597
000230 67 76 ac 3d 02 10 db 3c 79 b2 f6 3c 46 26 7d 3d
       0.08421021 0.026741032 0.0301144 0.06180408
000240 0c b4 7c 3d 9e f2 9f 3d 5a bd 97 3d f4 e1 00 3d
       0.061695144 0.078099474 0.07409163 0.031465486
000250 8b 62 a7 3c aa 44 69 3d 39 a6 04 ba bb b6 33 3a
       0.020432731 0.05695025 -0.00050601695 0.0006855537
000260 80 42 9b 3d fc 27 0c bd fa 43 b4 bd 20 5a 09 be
       0.07581043 -0.03421782 -0.08802028 -0.13413286
000270 0a 02 7f bd ca 68 e4 bd 1e 74 ce bd 47 37 b2 bd
       -0.062257804 -0.111527994 -0.10080741 -0.087019496
000280 46 09 8a bd df 51 ea bd 78 ac 2d 3d 35 9b 74 bd
       -0.0674005 -0.11441397 0.042400807 -0.05971833
000290 b0 d2 2f bd 53 fa 0f 3e 6d 6e 1e bc d5 aa 36 3e
       -0.042925537 0.14060335 -0.009669882 0.17838605
0002a0 c1 3f c1 3d ec 86 90 bd 29 ef 1f bd eb 87 66 bd
       0.09435988 -0.07056984 -0.03904644 -0.056281965
0002b0 e2 6e d3 3a 5b 07 63 3d 4c ea 31 3b 77 a1 bb 3d
       0.0016131068 0.055426937 0.0027147708 0.09161656
0002c0 66 f1 54 3b fa fe b4 bc d1 fd 24 bd 67 2c 2b 3d
       0.0032492517 -0.022094239 -0.04028112 0.041790392
0002d0 9e 30 78 3b fd ab 83 3e 79 c3 21 3e 65 03 51 3c
       0.0037870775 0.25717154 0.15797223 0.012757157
0002e0 05 fd 02 3e d6 63 c7 3d da 44 05 be 2b 6a 86 3d
       0.12791832 0.09735839 -0.13014546 0.06563219
0002f0 08 5d 76 3d 08 d0 14 3d 13 e1 aa 3d 88 d5 01 3e
       0.060147315 0.036331207 0.08343711 0.12679112
000300 d8 97 65 3d 70 39 96 3d 07 88 c3 3d eb 25 64 3d
       0.056053013 0.07335174 0.095474295 0.055700224
000310 87 55 86 3d 91 1b 7f 3d 09 70 bb bd ad cb 02 be
       0.06559282 0.06228215 -0.091522284 -0.12773009
000320 8c 3b bf bd 58 4e a2 bd 8c 8e f5 bd 3d 28 38 bd
       -0.093375295 -0.07925099 -0.11990079 -0.04496025
000330 52 bf 26 bc 49 f9 34 bd 0c 36 fc bc 4c e6 1f bb
       -0.01017745 -0.04418305 -0.03078749 -0.0024398742
000340 89 8d 1e 3d 8a c4 18 3c 0e 08 19 bd ac 7f fc bc
       0.038709197 0.009324202 -0.037361197 -0.030822597
000350 18 1e f4 bb 44 3b bd bd 46 0b 18 bd 04 72 d8 bc
       -0.0074498765 -0.0923982 -0.037120126 -0.026421554
000360 c8 39 34 3c 89 b0 4d bc 27 e8 67 3d 9c 87 f6 bb
       0.011000104 -0.012554296 0.056617882 -0.00752349
000370 eb 6d 43 bd 79 63 3e 3d 46 22 cb bd 24 f3 89 bd
       -0.047712248 0.046481583 -0.099186465 -0.067358285
000380 c9 51 e6 bb 3f e0 4b bd 44 81 02 3d 65 b0 51 bd
       -0.0070287925 -0.049774405 0.03186156 -0.051193614
000390 c0 32 35 bd a2 6b 83 3c c4 16 ef 3c 32 f5 04 bd
       -0.044237852 0.016042534 0.02918566 -0.0324604
0003a0 f4 7d 2d 3d af ad 08 3e 61 7d 29 3b a5 55 50 bd
       0.042356446 0.13347505 0.0025862085 -0.050862927
0003b0 f4 2c d0 bd 12 84 f6 3c df 7a a1 3b 9a 38 5d bd
       -0.10164824 0.030092273 0.0049279775 -0.054009058
0003c0 6f 25 0f 3a 89 d1 31 bd bc dd ee bd 61 23 ca bd
       0.0005460595 -0.04341272 -0.11663386 -0.09870029
0003d0 f1 8e 77 bd ad 20 d8 bd 35 1c 13 be 75 99 49 bd
       -0.060439054 -0.105531074 -0.14366229 -0.049218614
0003e0 ca 13 e3 bd b4 d1 bc bd 96 61 ba bd 26 29 0e be
       -0.11087759 -0.09219685 -0.09100644 -0.13882884
0003f0 30 72 c2 3c 94 92 8c ba 7a f1 65 3d 0e ac d9 3c
       0.02373609 -0.0010724836 0.056138493 0.0265713

conv3.0.bias f4 [64]
000000 19 7f 5e 3e 14 42 1c 3e 31 7d 79 3d 16 88 6c bd
       0.21728171 0.15259582 0.060910407 -0.05774697
000010 37 c3 39 3e 28 9c 45 3b 97 82 1d 3c 51 f8 20 be
       0.18140875 0.003015289 0.009613655 -0.15719725
000020 ce 3c dc 3d b3 36 95 3d 30 f7 16 3d 86 2b 3b bc
       0.10753785 0.07285824 0.03685683 -0.011423951
000030 39 1e 70 3d 44 8b b6 bd 99 5e 86 3b 14 9a 9a bc
       0.058622573 -0.089132816 0.0041006324 -0.018872298
000040 eb 43 04 3e bf 5c 14 3d 5e 1f 40 3d 4b 9a 2d 3e
       0.12916534 0.036221262 0.046904914 0.1695339
000050 84 a8 5d 3d b3 36 01 3d 70 3c 19 3e a8 bf 33 bd
       0.054115787 0.031546306 0.14964461 -0.04388395
000060 d0 2b b1 bd d8 9e ed 3d 0a 22 06 3b f4 a3 22 be
       -0.08650935 0.11602563 0.0020467066 -0.15882856
000070 9f c2 a9 3c 9b 6e 75 3e aa 8f 16 3e 1d 35 f6 bc
       0.020722685 0.23967974 0.14703241 -0.030054623
000080 a4 49 0e be 8a f6 f7 bd 1e d4 bb 3c 86 dc 43 3c
       -0.13895279 -0.121075705 0.022928294 0.011954432
000090 ea 80 10 3e 33 55 cf bc ad 4e 49 3e 23 ae 0d 3e
       0.14111677 -0.02530918 0.19658919 0.13835959
0000a0 3a a4 94 bd 76 1d 26 3d 0c 28 a0 3d aa 27 0d be
       -0.07257886 0.04055544 0.07820138 -0.13784662
0000b0 a0 c2 1a bc 61 71 c4 3d 51 a4 07 3e f6 d9 38 3d
       -0.009445816 0.09591938 0.13246275 0.04512974
0000c0 f4 17 55 3d ed ef df 3d 37 08 8f bc ff 8c 57 bd
       0.052024797 0.10934434 -0.017459972 -0.0526247
0000d0 9e 78 3b 3c 31 6e b0 bc 09 c6 ef bd 7d f1 96 3d
       0.011442332 -0.021536918 -0.11707694 0.07370279
0000e0 37 be 98 bb 86 fa 71 3d 84 53 49 3d 3d 62 b1 3b
       -0.0046613473 0.05907681 0.049151912 0.0054133222
0000f0 b5 51 85 bc 07 4f 17 3e 6a 46 36 3e 70 e6 72 3e
       -0.016274313 0.1477624 0.17800298 0.23720717

conv3.1.weight f4 [64]
000000 bd 01 03 40 dc c6 e8 3f 97 90 00 40 5d 8e f4 3f
       2.046981 1.8185687 2.008825 1.9105946
000010 95 67 f5 3f a7 d2 ee 3f 6f 27 ff 3f 4d 4a f8 3f
       1.9172236 1.8658036 1.9933909 1.9397675
000020 e9 7f f6 3f d1 a2 ff 3f f8 d5 f8 3f f3 54 01 40
       1.9257785 1.9971563 1.9440298 2.02081
000030 0f 2a 06 40 e2 9a f6 3f 81 78 ee 3f 54 3d e6 3f
       2.096317 1.9266016 1.8630525 1.7987466
000040 8e bf 00 40 68 d5 f3 3f d2 56 04 40 db 05 04 40
       2.0116916 1.9049501 2.067799 2.0628574
000050 64 48 fe 3f 30 a4 d4 3f 0c d0 03 40 a7 10 fc 3f
       1.9865842 1.6612606 2.0595732 1.9692582
000060 f9 43 06 40 c3 1c f4 3f 66 0f d9 3f d0 75 fe 3f
       2.0978987 1.9071277 1.6957824 1.9879704
000070 8f 50 f2 3f 7a 20 04 40 15 17 f5 3f 62 f5 ff 3f
       1.8930835 2.0644822 1.9147669 1.999676
000080 f4 af dd 3f 63 ca ec 3f 3f 9a f7 3f 17 ef ef 3f
       1.7319322 1.8499264 1.9343947 1.874484
000090 23 97 f3 3f 40 68 f9 3f c5 3c fc 3f c7 5d 07 40
       1.9030498 1.948494 1.9706045 2.1150987
0000a0 73 92 f6 3f 51 58 01 40 65 92 e4 3f 09 e5 e5 3f
       1.9263443 2.0210154 1.7857176 1.7960521
0000b0 ec 9a f4 3f 3e 6f ee 3f fc 64 04 40 01 1d d9 3f
       1.9109778 1.8627698 2.0686636 1.6961976
0000c0 8f d2 f0 3f e2 69 f9 3f 34 23 01 40 fa 61 e8 3f
       1.8814257 1.9485438 2.0177736 1.81549
0000d0 65 37 f2 3f b3 69 f0 3f 75 04 e9 3f 75 09 08 40
       1.8923155 1.8782257 1.8204485 2.1255772
0000e0 2b 0e ec 3f 94 78 fe 3f 76 90 f2 3f f8 a7 f7 3f
       1.8441824 1.9880548 1.8950336 1.9348135
0000f0 9e 9a df 3f b5 07 fd 3f ae ca 04 40 df 94 01 40
       1.746906 1.9767977 2.0748706 2.0247114

conv3.1.bias f4 [64]
000000 d2 36 03 bd 2f 7f 7e 3d 26 19 1d 3c 24 7b b1 3d
       -0.032034703 0.06213301 0.009588515 0.08666065
000010 23 33 bd bd 0f 6b 53 3e 4b 25 41 3d 7f b4 25 3e
       -0.09238269 0.20646308 0.047154706 0.16182135
000020 57 be 25 bc 2c 68 2a 3d 80 df 72 3b a6 ce 8d 3c
       -0.010116181 0.041603252 0.0037059486 0.017310452
000030 43 65 fd bc e5 cb 31 3e 7a 79 d2 3b 90 a6 be 3d
       -0.030932074 0.17362936 0.0064231725 0.09309113
000040 27 c6 4a bd ad 57 d0 bd ae 8b c0 3d 87 2d 67 bc
       -0.04950538 -0.10172973 0.09401642 -0.014109976
000050 82 17 e1 3d 4a 4f cb 3d bf 93 0e be 85 e3 75 bc
       0.10990812 0.099272326 -0.13923548 -0.015007858
000060 d7 8f 27 3e b4 46 85 bd 47 bc a2 3d df 2a 1f 3e
       0.16363464 -0.06507626 0.07946067 0.15543698
000070 68 c6 56 3e df ed c1 bd 9d 2d 1c bd 29 8a e1 3d
       0.20974123 -0.094691984 -0.038129438 0.1101268
000080 56 d0 93 bb 33 37 51 3e 63 bf 16 3e 78 cc 83 3c
       -0.0045109196 0.20431213 0.14721446 0.01608871
000090 e1 74 cd bb e4 c1 35 3e ae 5d e7 bd 50 19 2e 3d
       -0.0062700366 0.17749745 -0.11297165 0.04250461
0000a0 8f 20 41 3e e5 ec 67 bd 0f d9 83 bd 4b 06 82 3e
       0.18860076 -0.056622405 -0.06437885 0.25395426
0000b0 d2 50 fa 3d 60 db d9 3c 86 3b 9e bd a8 70 15 3e
       0.122224465 0.026593864 -0.07726197 0.14593756
0000c0 71 be 8f bd 4a 45 66 bc 7f 77 49 3d d2 7d ff 3d
       -0.07018746 -0.014054606 0.049186226 0.1247517
0000d0 bc cb 2c 3d b2 8b 16 3e 3a 6d 11 3e 1b 7b 99 bd
       0.042186484 0.14701727 0.14201823 -0.07494184
0000e0 13 ca ee 3d e9 3b fe bc e5 c1 a2 bd e8 41 12 3e
       0.11659636 -0.031034427 -0.07947139 0.14282954
0000f0 6f 9a 00 3e 81 38 90 bd 34 13 77 bd 3b 21 8d bb
       0.12558912 -0.07042027 -0.060321048 -0.00430694

conv3.1.running_mean f4 [64]
000000 0d 0d 30 3f a6 e1 a7 3e 8f db ae 3d 0b ad f0 bd
       0.68769914 0.32789344 0.08537971 -0.11751755
000010 de 0e 6f 3e 5d c4 0e bd 57 15 03 be 5f 6b db be
       0.23345515 -0.034855235 -0.12801109 -0.42855355
000020 4d 73 38 3e 6e 04 60 3e e3 05 6b 3d 3c b7 83 3d
       0.18012734 0.2187669 0.05737866 0.064314336
000030 bb 2e 91 bb c9 b5 44 be 94 0e 8d be 57 9e d3 3e
       -0.0044306195 -0.1920997 -0.27550185 0.4133174
000040 73 f6 1b 3f be 9a 4e bc 80 ef 27 3e 2e 9d 80 3e
       0.60922927 -0.012610136 0.16399956 0.2511992
000050 74 63 70 3e 64 da 2b 3e 79 9e b6 3c 37 05 a5 be
       0.23475438 0.16782528 0.022292363 -0.3223054
000060 5c da d7 be eb bf 68 3e c9 50 f5 bd 83 1f 1d bf
       -0.42158782 0.22729461 -0.11978299 -0.6137621
000070 e5 f9 d7 3e 3d e0 f3 3e e0 06 6e 3e 3a 05 03 3d
       0.42182842 0.47632018 0.2324481 0.031987406
000080 02 1d fa be fd fb ba be 2a 17 a4 bd c6 0c 22 3d
       -0.48850256 -0.36520377 -0.08012231 0.039562963
000090 4f cf 2c 3e 49 9b 93 bd 42 d8 09 3f 27 44 ea 3e
       0.16875957 -0.07207353 0.5384561 0.4575512
0000a0 a3 48 a7 be e7 a1 e9 bd de 15 a6 be 22 a7 3e be
       -0.32672605 -0.114078335 -0.32438558 -0.18618444
0000b0 16 51 13 bd b7 f0 11 3f de c2 a1 3d c6 87 fb 3d
       -0.035966 0.57007927 0.07898496 0.12281756
0000c0 a6 f8 dc 3d 9c 37 86 3e ca d2 56 bc 19 ad a9 be
       0.107896134 0.26214302 -0.0131117795 -0.33139876
0000d0 ed 77 a7 3d 87 52 13 bd be ed 50 be d1 62 24 bc
       0.08177171 -0.035967376 -0.20403191 -0.010033325
0000e0 a9 ed 0f be 3d 11 bd be 0a ec 6a 3c 0a a4 8a bd
       -0.14055504 -0.36927214 0.014338503 -0.06769569
0000f0 2e a8 91 be 70 2c 1c 3f 4f 28 92 3e 8d 19 ec 3e
       -0.28448623 0.61005306 0.28546378 0.46113244

conv3.1.running_var f4 [64]
000000 b9 d9 42 3e 19 0a 0a 3e a7 5a 11 3e 70 ce 25 3e
       0.19028367 0.13480414 0.14194737 0.16192031
000010 ab 66 55 3e 31 82 18 3e f1 1f 7c 3e c0 99 0a 3e
       0.20839946 0.14893414 0.2462156 0.13535213
000020 b5 b4 0f 3e 27 e9 2d 3e 77 38 2c 3e b8 af 1d 3e
       0.14033778 0.16983472 0.16818415 0.15399063
000030 d9 fe 3b 3e 2e 72 2b 3e 46 3e 20 3e 98 62 17 3e
       0.18358935 0.16742775 0.15648755 0.14783704
000040 6d b4 3f 3e 72 a1 26 3e 1e 06 25 3e 99 65 23 3e
       0.1872117 0.16272524 0.16115615 0.15956725
000050 eb f0 37 3e 2d ed 0a 3e 13 1d 46 3e 3f b9 6d 3e
       0.17962997 0.13567038 0.19347028 0.23215197
000060 72 2e 6a 3e d6 9f 68 3e 12 62 84 3e 54 37 1a 3e
       0.2286928 0.22717223 0.25856072 0.15060169
000070 bd 73 4d 3e 95 d0 47 3e 6a 42 2f 3e 8b 24 47 3e
       0.20063682 0.19513161 0.17115179 0.19447534
000080 af af 0f 3e f4 d9 31 3e ce a1 1d 3e 70 ac 21 3e
       0.14031862 0.17368299 0.15393755 0.15788436
000090 37 38 1e 3e e6 94 54 3e 92 f1 25 3e 4a e9 4d 3e
       0.15451132 0.20759925 0.16205433 0.20108524
0000a0 cd 8d 1e 3e 61 47 2c 3e fd 65 17 3e c5 86 30 3e
       0.1548378 0.16824104 0.14784999 0.1723891
0000b0 ff b6 0e 3e 2b fd 39 3e dd 5e 7d 3e 41 70 17 3e
       0.13936995 0.18162982 0.24743219 0.14788915
0000c0 80 0a 60 3e 7e fb 31 3e 61 50 02 3e 11 6c 2d 3e
       0.21879005 0.17381093 0.12725975 0.16935755
0000d0 ff 11 39 3e c6 b8 04 3e 5a ba 06 3e 06 c6 22 3e
       0.18073271 0.1296111 0.13157025 0.15895852
0000e0 f0 8e 41 3e 6b df 54 3e 2d a2 1b 3e 5e 00 43 3e
       0.18902183 0.20788352 0.15198584 0.19043109
0000f0 af f6 2e 3e f0 d8 1d 3e 5b 45 47 3e 39 c6 04 3e
       0.1708629 0.15414786 0.19460051 0.12966241

fc.weight f4 [10, 64]
000000 47 be d2 3e d1 54 2f bf 14 c7 4d 3f dc cb 89 3e
       0.41160795 -0.68488795 0.80381894 0.26913345
000010 22 50 d3 be f4 43 ac 3e 7a ac f3 be a2 e5 2f 3f
       -0.41272074 0.33645594 -0.47592527 0.68709767
000020 ba 3d c8 bd 8d 52 d5 be ae 40 bb 3e 5f 5e 19 3f
       -0.097773984 -0.41664544 0.36572784 0.59909624
000030 99 fc 1e 3f af 6c d8 3e eb 51 37 be ca 3f d6 3e
       0.62104183 0.4227042 -0.17902343 0.41845542
000040 2d 99 c2 bd 89 1d 3e be 10 68 d5 3d c6 4f f7 be
       -0.09501872 -0.18565954 0.10420239 -0.4830305
000050 d7 51 0f bf e4 fd 27 be 65 ed 86 bf f9 c5 15 3f
       -0.5598425 -0.16405445 -1.0541197 0.5850521
000060 3c d1 f9 3e 14 af f8 bd b4 77 8e bd 61 21 e5 3e
       0.48792446 -0.121427685 -0.06956425 0.4475203
000070 ce 78 16 3e 33 72 1b 3e 7c f2 cf 3e ff 05 ea be
       0.14694521 0.15180282 0.40614688 -0.457077
000080 a2 b4 89 be 4c e8 18 3e 09 43 c6 be 83 ce 4c 3e
       -0.26895624 0.14932364 -0.3872302 0.20000653
000090 68 72 9b be 86 1b 82 3e f3 13 d5 be 13 80 35 bf
       -0.30360723 0.25411624 -0.41616783 -0.7089855
0000a0 4f a0 04 3f 88 9c c8 bd 16 42 9f bd 1a a2 dd 3e
       0.5180711 -0.09795481 -0.07776277 0.43287736
0000b0 41 04 09 bf e7 ed 87 bd 7a 85 0c bf e3 71 7c be
       -0.53522116 -0.06637173 -0.5489117 -0.2465282
0000c0 be 66 00 bf 04 8c 23 bf 83 7a 63 3e 0a 36 1f be
       -0.5015677 -0.6388552 0.22214703 -0.15547958
0000d0 00 93 32 3e 1e 4b fb be 70 9e 07 bf 8d 22 a4 ba
       0.17438889 -0.49080747 -0.5297613 -0.0012522504
0000e0 c4 d5 c8 be 5d 6f 31 3e 5e d3 04 bf f8 f8 f1 bd
       -0.3922559 0.17327638 -0.5188502 -0.11815065
0000f0 39 37 93 bc 20 e2 3b 3e 81 d0 d7 be 45 4b 50 bf
       -0.017970668 0.18347979 -0.42151263 -0.8136485
000100 6d 7b bb 3e fa 7a d1 bd 77 09 7c 3e a1 ae 65 be
       0.36617604 -0.10228534 0.24612986 -0.22429897
000110 8b 4b 30 3d 77 f7 8a be 8c de 86 bd fb c5 9f be
       0.043040793 -0.27141926 -0.06585416 -0.31205735
000120 64 85 b6 be 56 19 0b bf 33 8c 65 3e 69 3f e9 bd
       -0.35648644 -0.54335535 0.22416763 -0.11389048
000130 9b 56 b3 3d ed 58 8b be f6 f4 9a 3e c6 87 cb be
       0.08756753 -0.27216282 0.30265015 -0.39752024
000140 d0 81 a0 3e b7 35 99 3e 9f 2b 66 be e2 02 d0 3e
       0.3134904 0.29923794 -0.22477578 0.406272
000150 f8 40 cc 3e f3 4e 8d be 03 fa 0b 3d 25 d6 82 be
       0.39893317 -0.27599296 0.034173977 -0.25554004
000160 b2 35 f6 be dd 5c 00 3e 1a 98 16 be 9b 2a 80 be
       -0.4808784 0.12535425 -0.1470646 -0.25032505
000170 6b dc bf be 34 26 f5 3e c3 62 20 3e 4c 03 56 3e
       -0.37472853 0.4788071 0.15662675 0.20899695
000180 86 3b 85 be 92 c2 8d be 7f c5 e3 3a 48 de 02 3f
       -0.26021975 -0.27687508 0.0017377584 0.51120424
000190 ed d0 94 3d 4e dd 27 bf 79 80 57 3e 31 b6 5b 3e
       0.07266412 -0.6557206 0.21045102 0.2145622
0001a0 d9 5b a1 be 53 aa 44 3e 16 4a 98 3e 28 b9 17 bf
       -0.31515387 0.19205599 0.29744023 -0.592669
0001b0 c1 49 85 be 4e 77 b7 3e 0c 5e d8 3e 7e 7f f7 be
       -0.26032832 0.3583321 0.42259252 -0.48339456
0001c0 74 c2 0e 3e 2b 7a 13 3e 5b 20 ca bc dc c4 ba be
       0.13941365 0.14402072 -0.024673631 -0.36478317
0001d0 7d e0 72 be 69 b1 bc bd 72 bc ce be 7c b8 a8 bc
       -0.23718448 -0.09213526 -0.40378147 -0.020595782
0001e0 5c 95 a8 be e5 8d e6 bd 12 85 87 3d 4d 2d 23 bf
       -0.32926452 -0.11257533 0.06617178 -0.63741
0001f0 49 55 08 3e db cc 5e 3e c1 60 cb 3e 76 59 f6 bc
       0.13313784 0.21757834 0.39722255 -0.030071955
000200 98 4d b9 3d 54 69 0b 3f ab 21 20 bf d2 64 10 bf
       0.09048003 0.5445759 -0.62551373 -0.5640384
000210 e5 b1 89 be 99 b7 a3 3e 2f 3e 42 3b ef b7 00 bf
       -0.26893535 0.3197601 0.0029639115 -0.5028066
000220 73 72 04 bd ee dd a1 3e 47 15 4e bf db b2 02 be
       -0.03233571 0.3161463 -0.80501217 -0.1276354
000230 dd 9d a4 bd 3d 27 ea 3d 4d bb 34 bf d0 53 88 3e
       -0.080379225 0.11433265 -0.705983 0.26626444
000240 af d9 e8 3e 36 28 fc be 22 ff e3 3e e6 23 c4 3c
       0.4547858 -0.4924943 0.44530588 0.023942899
000250 7f 65 9b be 58 38 f2 3d c2 08 58 be c3 4e c9 be
       -0.30350873 0.11827153 -0.21097091 -0.39317903
000260 d2 31 c1 3d 97 6f 4d be c6 67 84 bd 76 34 bb be
       0.094333306 -0.200621 -0.06465106 -0.36563462
000270 7a f4 87 3e f0 41 0f be b8 5a f1 be c3 c4 3a bd
       0.26553708 -0.13989997 -0.47139525 -0.045597803
000280 f3 ed 31 be dc 5f dc be 75 4b ad 3e 8c 4c f4 be
       -0.17375927 -0.43041885 0.33846632 -0.4771465
000290 72 5a 08 3f 8c 72 21 3e 43 fa 79 3d 5e e1 a6 3e
       0.5326301 0.15766352 0.061029684 0.32593817
0002a0 c5 d9 48 be 1b 0a 2b bf 78 be 22 bf 0a b7 e8 3e
       -0.19614322 -0.66812295 -0.6357188 0.45452148
0002b0 de ae 2d bd 75 5b d9 3e a0 f0 bd be 86 00 dd 3e
       -0.042403094 0.4245259 -0.37097645 0.43164462
0002c0 45 d6 32 be ce 11 4e 3e a3 5e 0c 3d de 45 59 be
       -0.1746455 0.2012398 0.03426994 -0.21218058
0002d0 a5 a2 d5 3e ab c1 e2 3e 1e 67 9d bd 4f 4d 20 be
       0.4172565 0.44288382 -0.07685684 -0.15654491
0002e0 e3 11 0b 3e 22 9b 30 bf d1 38 73 be 67 55 52 be
       0.13581042 -0.68986714 -0.23752142 -0.20540391
0002f0 b1 cb 3a bb f0 76 41 3e ad 61 8e bd 03 f0 5f 3e
       -0.0028502757 0.18893027 -0.06952224 0.21868901
000300 3a 9b 04 3f d5 18 15 be 5f 45 5e be d4 a2 0e bf
       0.51799357 -0.14560254 -0.2170615 -0.55717206
000310 24 a0 c5 be a4 2a 7b be 89 83 e5 3e b0 83 e0 be
       -0.3859874 -0.24527985 0.44826916 -0.4385047
000320 58 7b c8 bc 73 55 c6 be 9a b3 26 3c 18 83 a5 3d
       -0.024472877 -0.38737068 0.010174656 0.08081645
000330 40 07 fc 3d 64 98 bf bd 3c 6c 01 bf eb 8c f1 be
       0.1230607 -0.09355238 -0.5055578 -0.47177824
000340 62 0e 04 bf e2 57 0b 3e 62 fd d0 3e d0 d3 27 3f
       -0.51584446 0.13607743 0.40818316 0.65557575
000350 bd 40 00 bc 37 0a b8 bd 0c aa 2b 3e 95 ef 25 3e
       -0.007827935 -0.08986323 0.16764086 0.16204675
000360 8d 18 63 3e 9a 40 a8 be 10 ce 97 3e 3c 8c 00 bf
       0.22177334 -0.32861787 0.296494 -0.5021398
000370 36 fa 24 3e cf fe e1 bd 2b 79 07 bf ed 7c b7 bd
       0.16111073 -0.11034929 -0.5291926 -0.089593746
000380 23 2a bc 3e 38 c7 85 be a0 dd 0a 3e 21 5d 13 be
       0.36750898 -0.26128554 0.13561106 -0.14390995
000390 10 f5 a8 3e f5 1e 89 3e b0 8f 03 bf 3e 86 6b 3e
       0.32999468 0.2678143 -0.51391125 0.23000428
0003a0 64 66 dd be a5 47 00 be 00 22 8c 3e 67 6c 55 be
       -0.4324218 -0.1252733 0.2736969 -0.20842133
0003b0 98 58 94 be ec ff 01 bf 1a 58 7d 3e 7d 04 b6 3e
       -0.28973842 -0.5078113 0.2474064 0.355503
0003c0 aa 32 e7 3e 44 5b 83 be b7 06 9c 3e 69 1f b1 be
       0.4515584 -0.25655568 0.30473873 -0.34594277
0003d0 5c 9a 59 bd 4e 21 a7 bd 21 b3 11 be 51 30 59 3e
       -0.053125724 -0.08160649 -0.14228489 0.21209837
0003e0 40 c3 d9 3e 32 02 9e be fd 2f b3 be 5e c3 c1 3d
       0.42531776 -0.3086105 -0.3499755 0.094610915
0003f0 52 02 27 bd 6c a2 27 bf 15 37 ba 3e a8 28 97 3e
       -0.040773697 -0.6548221 0.3637015 0.29523206

fc.bias f4 [10]
000000 74 60 b7 3d 0f 60 55 be bb 4c ce 3d de f4 5c bd
       0.08953944 -0.20837425 0.10073229 -0.05394446
000010 ed c3 24 3d 67 6f aa bd 6a 69 92 3c a9 40 c8 bd
       0.040225912 -0.083220296 0.017872531 -0.09777958
000020 89 f6 a4 bd 91 89 78 bb
       -0.08054835 -0.0037923793
