Task2/model_hanning.pt (torch, 105971 bytes, 20 tensors)

conv1.0.weight f4 [16, 2, 3, 3]
00000000: a2d8 853d dbb5 15bd 8234 bc3d 08dc 0d3d
00000010: a9bc a2bd 30f8 84bd 24e2 72be 6d43 da3d
00000020: 5c23 243d 214b 2e3e a92b ee3d b149 53bd
00000030: c93f 4c3d 28db 96be ddcc 863c 111a 41be
00000040: 7e68 45bd 2faf 6e3d dcbc 0cbe 4f10 6b3e
00000050: b23d ca3c adaf 903d f403 b53e e4b5 ddbd
00000060: c537 41be 047e 7abe 47ff b9bd 4d80 31bc
00000070: d57e 1fbe 097b c53d fb92 32bd 3fd1 3fbe
00000080: 0f6d 333e 9b19 b43d 415d 7c3e 9334 dc3d
00000090: d558 433e e4e1 1dbe 748a 1d3d 1b06 c33d
000000a0: 98ee bebd 889c b4bd 80f3 aa3d 5967 5fbe
000000b0: 1d7a b9bd 136d d23e bf86 09be 4160 023e
000000c0: 8676 973e f773 84bd 3fe8 5c3d 7ab7 4a3e
000000d0: 38e9 ecbd 298b a2bd 4439 4d3e e654 5a3e
000000e0: c747 79be ac1f 86bd 4ffa 71bc b2d5 3bbe
000000f0: 843e 3cbe a8fb 393d ff2c 5eba 241c 963e
00000100: b4f1 3cbd f1f1 7cbe 881f f33d 2d0b fa3d
00000110: 029d bb3c 0d72 31be 9774 65be d99e bb3d
00000120: 7814 85bc 91f7 4abe bf4d 703d 23ff 15be
00000130: 1715 003d e131 843c 6ddf d8bd bf1e 1fbe
00000140: 51e3 8c3e e4e1 d1bd 3502 54be 18cd 493e
00000150: 3ac6 2fbd 35fa 0ebe 64f0 673e 1a5b babd
00000160: 0be8 a1bd 3c6f 0e3e 21d5 40be 1a1c 70be
00000170: 0d4a 18bd 4938 c53c 78e4 e6bd 5638 56bc
00000180: 901e 813e 149a 593e 1725 36be 8969 0f3d
00000190: 792d 133e 8e07 0b3c 6996 1bbe 78bc f13d
000001a0: 11da abbd 4136 45be a513 2cbe e732 343e
000001b0: 2d8c 39bd 8ee8 01bd 4546 433e 3015 453e
000001c0: 8908 51be dc97 243e c6f2 093d ebb2 343d
000001d0: 63a2 ab3e a6fd 49be 68ef c53d 7adf 563e
000001e0: e88e 2c3d 57f8 72be fd87 4e3e fbd1 8dbd
000001f0: 2092 15bd ad39 563e 9f77 8abd f2f6 ef3c
00000200: 6933 0fbd 4fa7 17be 0c38 1dbe a4ec 853e
00000210: 74ec 743e 1b7e f0bd f186 3ebe e914 f8bc
00000220: 6434 89bd 9375 61be 5f0c 94be bdf7 f1bd
00000230: bba8 223e 12e0 10be e5a8 c9bd 4285 493d
00000240: fb81 c5bd a0e3 82be 6b37 693e a50c edbc
00000250: 5365 70be e7aa 2d3e 2870 c03c 7119 32be
00000260: b362 ecbd c737 28bc 91b5 8fbc 4e23 f3bd
00000270: 21bf 0b3b 0729 043d f42f 4cbe 82af 853d
00000280: 95ea 08be 8c4d 603e d166 4abe 5009 49bb
00000290: 8854 a93b 921f 46be 2445 4a3d 6dc4 87bd
000002a0: 9fe8 2e3d 9e04 8c3d 1d00 583e cbe9 df3d
000002b0: ede7 d53d 4064 6ebe 451e 593e 7cbc 1d3e
000002c0: df28 c0bd d815 8c3d e487 b4bd 7e4d 9cbe
000002d0: 3e1d 65bd c7e4 ddbd 8cdd 4ebd e707 93bd
000002e0: 8d77 48bd fa8e 0b3e 8ff2 b3bd 817e 9e3e
000002f0: 2113 fbbd 92a0 63be 5f60 103e c1e9 f9bd
00000300: 583a a5bd bc87 34bd 75cc 40be b926 38bd
00000310: 6854 813e 8cbf 403e 7c7e 91be 1f3a 65bd
00000320: ab37 1e3e 29a7 d33d 08f2 c2bd 3bf1 863e
00000330: fdd5 4bbe 69c2 463e 4ab0 0737 d8d7 093d
00000340: 1c92 823c b7b0 b13d b86c 06be 9818 a4bd
00000350: 3765 ac3e 8610 13be 11ea 1dbd b1ee cc3d
00000360: 0135 0fbd 5f99 2c3e e800 813e 9ba2 2cbe
00000370: 5083 8b3c 21b9 143d eddc 1abe aeea bbbd
00000380: 8814 1a3e 80d1 82be e96d e3bd fb1e 8a3e
00000390: 3acd 36be b01f bb3d 8672 dfbd da57 0dbd
000003a0: ad8b 5ebd 80c4 9eba 4983 17bd 457c e2bd
000003b0: f514 c0bd 6b6c 9d3e 848e f43c 6782 323d
000003c0: a29f 2e3e 66a7 80be 4e32 30be 419b 33be
000003d0: 6c97 13be 9ac5 6dbe e900 e6bd 84a8 353e
000003e0: 1007 483e 71e6 173d 74bc 423d 95c1 5ebd
000003f0: 13b0 473e a70b 083e cfc5 46be 0ca7 c03e
0.0653546 -0.036550384 0.091897026 0.034633666 -0.0794614 -0.064926505 -0.23719078 0.10657392
0.040072784 0.17020847 0.11629421 -0.05158395 0.049865518 -0.29464078 0.016455108 -0.188576
-0.048195355 0.058272537 -0.13743919 0.2295544 0.024687622 0.070647575 0.35354578 -0.108257085
-0.1886893 -0.24462134 -0.090818934 -0.010833812 -0.15575726 0.09642608 -0.043597203 -0.18732165
0.17522071 0.08793946 0.24644949 0.10752215 0.19076855 -0.15418202 0.038462117 0.09522649
-0.09322852 -0.088189185 0.08347225 -0.21816768 -0.090564944 0.41098842 -0.13430308 0.1273203
0.29582614 -0.06467431 0.053932425 0.19796553 -0.115679204 -0.07936699 0.20041376 0.21321449
-0.24343787 -0.0654901 -0.014769151 -0.18343237 -0.18383223 0.045406014 -0.0008475333 0.29318345
-0.046128944 -0.24701668 0.118712485 0.12209163 0.022902016 -0.17328663 -0.22407757 0.09161157
-0.016245112 -0.19821002 0.058667894 -0.14648108 0.031270113 0.016137065 -0.1058949 -0.15539072
0.2751718 -0.10248163 -0.20703967 0.19707143 -0.042913653 -0.13962634 0.22650295 -0.090994075
-0.07905587 0.1390962 -0.18831302 -0.2344822 -0.037179995 0.02407469 -0.11274046 -0.013074955
0.2521863 0.21250182 -0.17787586 0.035012756 0.14372815 0.008485688 -0.15194096 0.11803526
-0.08391202 -0.19258977 -0.16804369 0.17597543 -0.045299698 -0.031715922 0.19069774 0.19246364
-0.20413412 0.16073555 0.033678792 0.044115942 0.3352233 -0.19725665 0.09664804 0.20983687
0.042128474 -0.23727547 0.20169063 -0.06924816 -0.03651631 0.20920439 -0.06761097 0.029292557
-0.034961138 -0.14809917 -0.15353411 0.26157105 0.23918325 -0.11742803 -0.18606164 -0.030283408
-0.06699446 -0.22017507 -0.28915688 -0.118148305 0.15884678 -0.14147976 -0.09846667 0.04919935
-0.096439324 -0.2556429 0.22775047 -0.028936693 -0.23476152 0.16959725 0.02349098 -0.17392518
-0.11542263 -0.010267205 -0.017542632 -0.11871968 0.0021323639 0.03226569 -0.19940168 0.06527616
-0.13370736 0.21904582 -0.19765784 -0.0030675717 0.0051675476 -0.1934798 0.049382344 -0.06629262
0.042702314 0.06836818 0.21093793 0.10933264 0.10444627 -0.2328043 0.21202953 0.15403932
-0.093827955 0.06840104 -0.088149816 -0.30527872 -0.05593609 -0.108346514 -0.050504252 -0.071792416
-0.048942138 0.1362876 -0.08786499 0.3095589 -0.12259508 -0.22229221 0.14099263 -0.12202788
-0.08067769 -0.04407476 -0.18827994 -0.044958804 0.2525971 0.1882307 -0.28416812 -0.05596363
0.15450923 0.10334618 -0.0951882 0.2635592 -0.19905849 0.19410099 8.0876725e-06 0.03365311
0.015938811 0.08676284 -0.1312741 -0.080125034 0.3367097 -0.14361772 -0.0385533 0.10006464
-0.034962658 0.16855381 0.25196004 -0.16858904 0.017030388 0.036309365 -0.15123339 -0.09175621
0.15046895 -0.2555046 -0.11104948 0.2697676 -0.17851725 0.09136903 -0.109105155 -0.03450761
-0.054332424 -0.0012113005 -0.036990438 -0.11058859 -0.09378997 0.3074678 0.029853113 0.043581393
0.17053083 -0.25127715 -0.1720669 -0.17539693 -0.14413232 -0.2321991 -0.11230642 0.17740065
0.19533944 0.037085 0.047543004 -0.054383833 0.1950076 0.13285695 -0.19411395 0.37627447

conv1.0.bias f4 [16]
00000000: f8e7 43bc 5a8b 173b 8950 963e fcd9 26be
00000010: b638 c03d e714 51bd 8dc5 223e 3ecc 043e
00000020: 1323 483e 6a72 b5bd 9cf0 0cbe 1f10 5bbe
00000030: cd49 c8bd 76a0 633d 52f5 0f3e e43e f23d
-0.011957161 0.0023123831 0.29358318 -0.16294092 0.09385817 -0.051045325 0.15895672 0.12968537
0.1954463 -0.088597134 -0.1376366 -0.21392868 -0.097797014 0.05557295 0.14058426 0.11828402

conv1.1.weight f4 [16]
00000000: be26 903f 3240 353f f185 393f bc86 a23f
00000010: b3bc b53f c270 893f 7752 4a3f 0c2f 853f
00000020: fb05 8b3f 799a 843f 050e a93f c334 573f
00000030: f4ab 8f3f b848 9b3f 1f0e 453f b27f 4d3f
1.1261823 0.7080108 0.72470003 1.2697368 1.4198211 1.0737536 0.7903208 1.0404983
1.08612 1.0359641 1.3207403 0.84064883 1.1224351 1.2131567 0.7697467 0.8027297

conv1.1.bias f4 [16]
00000000: 30f3 703e 6f58 02be ac73 62be 95fc 3b3e
00000010: c6f2 f1bd 184e 9cbd 2f1b 4bbe 66e5 753d
00000020: 3c94 503d 5bc2 883e c5b3 d33b ebda e23d
00000030: 92bb a83e 3c96 c13d ea4e a3be e237 053e
0.23530269 -0.12729047 -0.22114438 0.18358071 -0.118138835 -0.07632083 -0.19834588 0.060033225
0.050922617 0.2671078 0.006460639 0.110769115 0.32955605 0.09452483 -0.31896144 0.13009599

conv1.1.running_mean f4 [16]
00000000: af58 96bd 5fb7 653d 579f cd3e 347a 68be
00000010: 611a 2d3c ce74 13be b196 bc3e dcda bdbd
00000020: 18b4 273d f73f febd 2428 43be d03b 1cbe
00000030: 9151 18be a020 f3bc 0a87 473e 1252 d03e
-0.07341134 0.05608308 0.4016063 -0.22702867 0.010565371 -0.14400026 0.36833718 -0.0927026
0.040943235 -0.12414544 -0.19058281 -0.15257192 -0.14874865 -0.029678643 0.19485107 0.40687615

conv1.1.running_var f4 [16]
00000000: 9570 853c 7ea9 433c 7c65 473d 520d d43c
00000010: a102 143d 34ca 9f3c 1d93 c63d 2255 c73d
00000020: 52b1 483d 5e8e 113c 9883 a23c 8371 0a3d
00000030: e35f f63c 9523 043d 9dce d23c 8c64 363e
0.016289035 0.011942266 0.048680767 0.025885258 0.03613532 0.019505598 0.096960284 0.09733035
0.04899723 0.008884041 0.01983814 0.03379966 0.03007502 0.032260496 0.025733287 0.17811793

conv2.0.weight f4 [32, 16, 3, 3]
00000000: 5bde 42bb 44fa 0b3e 375d b83d 0c2a dc3d
00000010: df4a d63d 9859 aa3b 6843 b3bc 6bf4 07be
00000020: ff0f 85be 5e28 f6bc 3901 fabc 93f1 223b
00000030: 0450 44bd 7377 1fbd f6d6 f4bc 7246 1b3c
00000040: a38b a63c 41bf 21be 26d8 c53d 23fa 8d3b
00000050: 7ffd babc 384c 773d 0146 97bd 1c25 003d
00000060: 8f89 943d 8201 b13d e9bf 99bd edda 173e
00000070: 3f30 d43b 8a30 293d c928 87bd 83dd c33d
00000080: 09d6 f9bc 389e fbbd 5e05 32bd c770 aa3d
00000090: 8ba5 54bc f0ae 7a3e 1670 d0bc 1182 503c
000000a0: 5d09 833e 9f76 14be 9797 003e f8f4 243e
000000b0: 6199 b7be 2cd0 07be d3f1 06bd 701f cfbd
000000c0: a9ba a03d baf2 fcbd 0f6b c4bd 84f3 1c3e
000000d0: 6e0d bcbc 1aaa 65bd 754f bcbd 9cfd 13be
000000e0: 8c6a c9bd 05be 653c cb4b a9bd 329b 6abd
000000f0: 9a68 4ebc ee29 0ebc 5d37 e2bd c97f 5ebc
00000100: f636 36bd 6ca3 7abe f06b 233e bd31 0dbd
00000110: 9eda 23be ef67 e43d 97ad b13c e085 30be
00000120: b165 f8bd 108c 0abe a5b0 c6be 05ca a73d
00000130: 9d8a d2bc 916f 67be 58da 6cbd 53c6 9fbd
00000140: 256f 17be 46b1 433d d688 47bc 6207 bb3d
00000150: c140 c3ba e4fb 33bc 9944 313b 5701 9ebd
00000160: bd12 db3d 2b4f 973b aca2 183d cff6 c33d
00000170: ffa2 40bc d0a6 ab3d 88d3 283d b417 ea3b
00000180: 7b11 143e 4c9f 493c b26e 73bd 7d4e 6dbd
00000190: b97e 29bd 7b53 9d3d 0c26 93bd 81b2 adbd
000001a0: 201f 9bbd 94cf 9b3d 6df0 eabb cb91 02be
000001b0: bdb8 b23d 5940 5e3d d747 5e3e d4d1 863d
000001c0: ec42 a13d e739 f03d c3a8 2f3d 33a5 f0bc
000001d0: 8ba4 95bd fc06 d33d a577 bcbc 7eea 8c3d
000001e0: b783 febc 65e9 28be 8121 4d3c cc64 09bd
000001f0: a2c0 a6bc 2a7e 683d b303 973d 82f0 83bd
00000200: d143 5dbd f6a8 083d 0fd5 18be 4bcc 6abd
00000210: a9f2 a1bb 7474 ce39 0a94 6abd 7d6e 8c3d
00000220: f7ed d6bd 1476 d8bc fa8f d4bc fb07 b2bc
00000230: 9b79 1ebc 76f5 81bd fb48 72bd d4ad 8abd
00000240: ea09 94bd 8b8e d2bd d1d8 74be add3 403d
00000250: 2fc5 71bb f463 f83d 93fd c83d f3e1 60bd
00000260: b3e7 a73d 9ae1 083d 10b2 dc3c 9a63 f63d
00000270: b27a d7bd 9696 41bd dc60 093d 50ef 9cbd
00000280: d0ec 3ebd ff35 1abd 4b0d 923c 86a0 f13c
00000290: 16df 26bd de1b 0b3d 4a59 c3bd 9309 01be
000002a0: a65e 593d e058 cf3c b924 58bd 8f81 4fbd
000002b0: 3b50 163e 0a2e 7f3d 4a79 653d 5305 aa3d
000002c0: e6c7 2bbc e2e3 e43b ff6a 8ebb 63d6 83bc
000002d0: 15c4 9a3d ac6a e13c fb96 d43c fdf7 bc3d
000002e0: 99b6 1b3e 4658 1f3d 6392 dc3c 28b8 8abd
000002f0: 471f 19be 6528 95bd 57ca e4bd 3e61 2fbd
00000300: b874 0dbd 096d d1bd ba73 4a3d 2f24 42bd
00000310: c5ec d6bd 2abd fbbc 3b65 003e eda5 15bd
00000320: 6d61 1cbe 9994 503d 13fb 0ebd b82a aebd
00000330: a854 5b3d d838 8fbd a046 e4bd de08 48bc
00000340: f784 08bd 9f9f b43d 84be dabc 7a90 413d
00000350: 5678 eb3d bb86 dfba 6423 4e3d fee0 c23d
00000360: 0e9c 73bc 8a84 d03c b167 e53c ec16 ffbd
00000370: 96ad e1bc da1a 493d 9a3c dabd 4729 6f3d
00000380: 80b2 303a 31a0 6fbe 79ff d73d 09de e6bd
00000390: 0d80 0dbe 8f0b 8dba bab1 77bc 3470 9cbe
000003a0: cf1d 6b3d 8e9a 1ebe e0db 963c 49e5 033b
000003b0: a08f 1dbe b912 11be a93b 2f3a 6f84 8bbd
000003c0: f6be 313c 08c2 cb3d 38b9 3fbe 3ace 3d3b
000003d0: 0dc0 4bbd 97b4 a2bd 5a13 48bd 55a5 94bd
000003e0: 218d e6bc 01d2 0abc 936c 8bbd 24f0 2fbe
000003f0: d4bf 96bd 19a5 6cbe c34f 5bbe a881 0e3e
-0.0029734585 0.13669688 0.09002154 0.10750207 0.10463499 0.0051986687 -0.021882728 -0.13276832
-0.25988767 -0.030048545 -0.030518161 0.0024863228 -0.04792787 -0.038932275 -0.029887658 0.009477245
0.020330256 -0.15795614 0.09660368 0.004332797 -0.022825954 0.060375422 -0.07386399 0.03128539
0.072528 0.08642866 -0.07507307 0.14829607 0.006475478 0.041306056 -0.06599576 0.095637344
-0.030497568 -0.12286037 -0.04346215 0.08322292 -0.012978922 0.24480796 -0.025444072 0.012726323
0.2559308 -0.14498375 0.12557827 0.16109073 -0.35859206 -0.13263005 -0.032945465 -0.10113418
0.078481026 -0.12350984 -0.09590732 0.15327269 -0.022955623 -0.056070425 -0.09194843 -0.14452213
-0.09834775 0.014022355 -0.082664095 -0.057276912 -0.012598181 -0.008676989 -0.11045716 -0.013580271
-0.04448601 -0.24476403 0.15959144 -0.034471262 -0.16001365 0.11152636 0.02168922 -0.1723857
-0.12128771 -0.13529992 -0.38806644 0.08192829 -0.025700862 -0.22601153 -0.057825416 -0.07801499
-0.14788492 0.047776483 -0.01217862 0.091322675 -0.0014896618 -0.010985348 0.0027048944 -0.07715099
0.106969334 0.004617592 0.03726451 0.095685594 -0.011757611 0.08381426 0.041217357 0.007143939
0.14459793 0.012306046 -0.05943174 -0.05793618 -0.041380618 0.07681938 -0.07184991 -0.084813125
-0.07574296 0.07607952 -0.0071697743 -0.12750928 0.08726642 0.054260585 0.21707092 0.0658299
0.078740925 0.11729794 0.042885553 -0.029375648 -0.07306775 0.103040665 -0.02300627 0.06880663
-0.031068666 -0.16495283 0.012520195 -0.033543393 -0.020355526 0.056760944 0.073737524 -0.064423576
-0.054019753 0.03336426 -0.14925025 -0.057323735 -0.0049422574 0.00039378146 -0.057270087 0.068570115
-0.10494607 -0.026423492 -0.02594756 -0.021732321 -0.009672548 -0.06345646 -0.05915163 -0.06771436
-0.072284535 -0.10281094 -0.23910834 0.04707687 -0.0036891212 0.121284395 0.098139904 -0.054902982
0.0819849 0.033418275 0.026940376 0.12030716 -0.10521449 -0.04726275 0.033539638 -0.07662833
-0.04661256 -0.03764915 0.017828604 0.029495489 -0.040740095 0.033962123 -0.09538515 -0.12601309
0.05306878 0.025310934 -0.052769396 -0.050660666 0.14679043 0.062299766 0.056023873 0.08301797
-0.010484671 0.0069851736 -0.004346251 -0.016093438 0.07556931 0.027516685 0.0259509 0.092269875
0.15206374 0.038902543 0.026925271 -0.06773406 -0.14953338 -0.07283095 -0.11171406 -0.042817347
-0.03453514 -0.10225875 0.04942677 -0.04739779 -0.10494379 -0.030729849 0.12538616 -0.036535192
-0.1527154 0.050922964 -0.03490741 -0.08504242 0.05354753 -0.06993264 -0.11146283 -0.012209145
-0.03332993 0.08819508 -0.026702173 0.047256924 0.11497562 -0.0017053703 0.05032672 0.0951557
-0.014868749 0.025453825 0.028003545 -0.12455544 -0.027548593 0.049097873 -0.1065609 0.058388975
0.0006740466 -0.23400952 0.105467744 -0.112728186 -0.13818379 -0.0010760891 -0.015118057 -0.30554354
0.057401475 -0.15488645 0.018415391 0.0020125678 -0.1538682 -0.14167298 0.000668461 -0.06812369
0.010848751 0.09949118 -0.18722999 0.0028962032 -0.0497437 -0.07944601 -0.04884658 -0.07258097
-0.028143467 -0.00847292 -0.06807818 -0.1718145 -0.07360807 -0.23109855 -0.21417145 0.13916647

conv2.0.bias f4 [32]
00000000: 6d51 d93c 18be a5bc bf46 e7bc c097 bf3d
00000010: f887 f23d 8890 f03d c2f5 78bc c22f 623d
00000020: 1dfa 83bb e140 d6bc 1d00 51bd 2e35 9b3a
00000030: e842 55bd 1744 7eba 1866 6abd c3be b33d
00000040: 84d6 0e3e 7719 db3d 43b7 883d b720 acbd
00000050: 64a5 b73d e2c2 c8bc 829a 133c 7463 653d
00000060: eb3b 1bbc 1fe5 3bbc 22ca f23c e2d0 823d
00000070: 154c debc 3592 df3d 92b7 733d 513a 163d
0.026528085 -0.020232245 -0.028231977 0.09355116 0.1184234 0.11746317 -0.015195312 0.055221327
-0.0040276186 -0.026153984 -0.0510255 0.001184141 -0.05206576 -0.0009699477 -0.05722627 0.08776619
0.13949019 0.106982164 0.066755794 -0.08404677 0.08967093 -0.02450699 0.0090090055 0.05600305
-0.009474735 -0.011468201 0.0296374 0.063874975 -0.027135888 0.10916559 0.05950124 0.03667671

conv2.1.weight f4 [32]
00000000: a3c8 493f 03a1 943f 0dbc 8c3f 22a3 783f
00000010: 6f16 813f 23ca 823f 887e 373f 5a38 1c3f
00000020: 199a 6f3f 6492 463f d520 6c3f 45c4 8c3f
00000030: f30f 8a3f 5bfd 7a3f a895 8a3f 36f2 8d3f
00000040: 6885 883f 2692 883f 32d6 5b3f e184 8a3f
00000050: e378 7e3f 3889 773f e5f5 473f db43 8d3f
00000060: ae7d 8c3f d2c0 803f 3639 8d3f 8577 7e3f
00000070: 3db9 903f 9a14 4a3f 019a 473f 296c 8d3f
0.7882177 1.1611637 1.0994889 0.9712392 1.0084971 1.0217937 0.71677446 0.61023486
0.9359451 0.77567124 0.922376 1.0997397 1.0786117 0.9804284 1.0826921 1.1089542
1.0665712 1.0669601 0.8587371 1.0821801 0.9940321 0.96693754 0.7810958 1.1036333
1.0975854 1.0058844 1.1033084 0.9940112 1.130653 0.78937685 0.77969366 1.1048633

conv2.1.bias f4 [32]
00000000: 03ac e1bd 4270 55be 1537 70be 55a4 adbe
00000010: ca69 45be 63cd 68be 25ba fdbe 5c44 c5be
00000020: 7d33 dabe 8723 a1be bde9 45be d24c 67be
00000030: 7c0d 8abe 89f5 32be 5c65 89be eb58 b5be
00000040: 01d0 e1be 826a 27be 300e 62be 8a0f cebe
00000050: 31c8 afbe 8f91 b5be 83ac 0ebf 98f4 3abe
00000060: fd6f bbbe 1a5f 2fbe 3afd 26be 27e5 8cbe
00000070: 9762 a5be ca93 adbe 509b 84be 8504 36be
-0.11019137 -0.20843604 -0.23458512 -0.33914438 -0.19278637 -0.22734599 -0.4955608 -0.38528717
-0.42617407 -0.31472418 -0.19327445 -0.22587898 -0.26963413 -0.17476477 -0.26835144 -0.35419402
-0.44104007 -0.16349223 -0.22075725 -0.4024623 -0.3433242 -0.35462615 -0.5573198 -0.18257368
-0.36608878 -0.17126122 -0.16307536 -0.2751858 -0.3230178 -0.33901817 -0.25899744 -0.17775162

conv2.1.running_mean f4 [32]
00000000: 58cf abbe cb8c e3bf a0e2 e8be 330f debf
00000010: 6603 adbf c17c f43e 8f7b d7bd abd4 e3be
00000020: 6e96 92bf 033a 72bf 62e4 b7bf c032 bebf
00000030: c988 2cc0 084b 3ebf ab98 26bf b036 eebf
00000040: 0d8c 0ec0 05f9 f3bf 44d6 70bf 4f89 ddbc
00000050: 9378 1f3f bd6a 17bf eb35 a23f a596 81bf
00000060: 2383 23bf 5050 f2bf a1df 4fc0 bac1 8ebf
00000070: c9a1 4dbf f256 0540 92c9 29bf 2087 bfbf
-0.33556628 -1.7777342 -0.454854 -1.7348388 -1.3516662 0.4775143 -0.10521614 -0.4449819
-1.1452157 -0.9461977 -1.4366572 -1.4859238 -2.6958487 -0.7433324 -0.650767 -1.8610439
-2.227298 -1.906037 -0.94076943 -0.027043013 0.62293357 -0.59147245 1.2672704 -1.0124098
-0.63871974 -1.893076 -3.2480242 -1.1152871 -0.8032499 2.0834317 -0.66323197 -1.4963112

conv2.1.running_var f4 [32]
00000000: adf8 5e3f abd4 f03f bf78 723f f2c3 8f3f
00000010: 4170 b53f 12ae 4f3f cc85 423f c55a 0e3f
00000020: d892 473f be9e 303f 60ee 853f 5816 ad3f
00000030: 72e8 c63f c577 9b3f 2fc6 0040 e531 bb3f
00000040: da22 e73f fd7b 0040 f0f7 0340 664a 1a3f
00000050: d89c 903f 413d ad3f 07a0 9f3f cc53 f03f
00000060: 756f 903f 888e cd3f acbd 2440 3f44 a43f
00000070: 83af f83f bc62 8a3f 7593 3f3f 1535 e63f
0.870982 1.8814901 0.94715494 1.1231673 1.4174882 0.81124985 0.7598541 0.55607253
0.7795844 0.6899222 1.0463371 1.3522444 1.5539687 1.2145926 2.0120962 1.4624602
1.8057511 2.0075676 2.062008 0.60269773 1.1297865 1.3534318 1.2470711 1.8775573
1.1284014 1.6059122 2.5740767 1.2833327 1.9428562 1.0811381 0.74834377 1.7984949

conv3.0.weight f4 [64, 32, 3, 3]
00000000: ddbc 0fbd 03ac 40bd 3a3f 03be b5ec a8bd
00000010: 449a 77bd 13d4 d6bd 1ee5 b6bc 8eab 48bd
00000020: a071 93bd ac80 113e d568 e73d a652 1fbb
00000030: 5e7e 493e 434a 1f3e 19d9 a93d 3b90 9d3e
00000040: c1c2 903e eeee 823d bd76 94bd 3c32 9dba
00000050: 7f49 863d b082 eebd ff6f 26bd c596 5f3c
00000060: 7cdb 1fbe 2d12 02bb 3dea 223d babb 8fb9
00000070: fac9 13bc 497f afbd a68a 3cbc 7f4b 39bd
00000080: 9c5f 153b 856f f73b 3ebf 0d3d ca58 b7bc
00000090: a2ed 883d c74a 0fbd b595 ebbc 7540 4cbc
000000a0: ee5a 9bbd c483 26bd da7b 513d 4f21 a3bd
000000b0: 1912 7cbd d760 39be 8ccd 1cbe 8ef1 d6bd
000000c0: 2c7c 7ebe b27d 30be 1d45 b3bd 6d18 49be
000000d0: 21ce 33be 3583 eabd 9cb1 a43c 78c0 adbc
000000e0: 68c8 2cbc c4f1 4fbd 91db 87bd 9586 97bd
000000f0: eb1d 823c d0a7 3cbd 72be c6bd a5a6 84bc
00000100: e35d 2aba 671e c23c 258b ddbb d3f1 f2bb
00000110: a117 1abc fd8f 67bc 426a d93c fc2d 3b3d
00000120: fb03 92bc 7fa0 f83c f9b7 ab3d 9c1a 373d
00000130: 628e 0fbc 7150 263d cc90 19bd 57de 1c3e
00000140: b99f 943d 30ba 8c3d bb3d bd3a 88a8 373d
00000150: 1e39 90bc f56c e1bc 3f80 853d 7102 053d
00000160: c841 6d3b 1dfb 373d 5eec 973d f964 f13d
00000170: 2425 2dbb 0048 793d 71be 233d 9e59 7abb
00000180: 1e76 d93d 9bca a43c 2212 293d 786a 24bd
00000190: 12d2 d0bc 16af d2bc 8681 283d bbdf 293d
000001a0: 40be 83bb 9533 bebc 42d4 86bd 92b7 4fbd
000001b0: ab42 143d d40d c5bc 7755 96bd e666 4e3d
000001c0: f75e 78bd 4e1e 0fbd b4fb 083c 6889 9dbd
000001d0: b7f6 8fbd 8cc1 eb3d bd09 433d 3509 14bd
000001e0: 5147 073c 0b26 173d c4c3 edbc a380 2d3d
000001f0: a63c 87bc bbac b1bd 0fae f8bc 692e 3c3c
00000200: 834c 0b3d 4f55 51bc 3861 aebb e34e a2bd
00000210: ba15 40bd 0b25 603d 3ac0 69bd 5012 553d
00000220: e90f 2f3c 33f6 df3d 5806 113d b2a9 133b
00000230: a262 913d 1c77 05bd 182a 63bd f589 853d
00000240: 850f 043c a576 22bd 0cf1 31bd d9a9 d9bc
00000250: 4c5f 5dbb e6f7 11bd 90f6 02bd dccd deba
00000260: c2fa 70bd 3912 7e3d a23f 633d 8227 dc3d
00000270: 5fd3 c63d af65 9ebd da85 b43c 4b97 c93d
00000280: bc16 cebb 8c5c 123c fe6d c5bc 8eec 91bd
00000290: d546 b63b 2b5e 663a ba44 3abc 1a9f 9a3c
000002a0: bdf0 12bd 9b4e a03c 3564 863c 311b d03d
000002b0: b14b 74bc 57ee 1bbc e772 8e3d 83b4 5fbc
000002c0: 4668 86bd 6fb1 4a3d f16a b3bd e99e 71bd
000002d0: 1aaf 583c 7bf1 a33d b597 b3bd 9752 f73d
000002e0: 1bb6 023e 3ee8 013d 1e88 df3d ea5c 7b3e
000002f0: a30a b43b 2950 63bd e7aa 2cbe 1dcd a83b
00000300: 3f01 d1bd c0b4 b0bd cf8c fd3c b565 d5bd
00000310: af98 26be 21e2 56bd 9454 6a3c 55d1 bdbd
00000320: 351e 93bd dfe5 e23c eef4 c8bd 768e 5fbd
00000330: a812 433d 03ae 14be 3996 c73b f14d 373b
00000340: 8ab2 2d3d 4832 7e3c 2a2a 343c 9156 633c
00000350: 59a1 4b3d 0c6f d13d 8d7d 653d 26f2 663d
00000360: fe7f fcbb e0e3 25bc 30d5 973d 6e50 4ebd
00000370: f745 b23b ba54 1d3d b1a9 1fbd 42d7 a6bb
00000380: 6aaa 953d aaa6 4d3d d623 e4bc a4b8 f7bd
00000390: 3053 593d 3d62 cf3c 4491 2cbd 82a7 973d
000003a0: 4020 81bd fa86 57be 8622 b43c bdab 893d
000003b0: e370 113e e5f4 403d 891f a13d 3a40 c73d
000003c0: 0ca2 9eb9 6adb bb3d e125 483e faa6 2abd
000003d0: 10e5 7bbc f165 9cbd 31c5 d3bd fc0a 9dbd
000003e0: 30a3 0cbe 8ae2 b9bd e1d2 97bd 0f63 8fbd
000003f0: 49e5 193e 8775 213e 23f8 1f3e 0fe4 b83d
-0.035092223 -0.047039043 -0.12817088 -0.08248273 -0.060449854 -0.10489669 -0.022326048 -0.048991732
-0.071994066 0.1420924 0.11299292 -0.0024310737 0.19677112 0.15555672 0.08293361 0.30774102
0.28273585 0.063932285 -0.0724921 -0.001199312 0.06556987 -0.116460204 -0.04063415 0.013646786
-0.1561107 -0.001984726 0.03977417 -0.00027414953 -0.009020323 -0.085691996 -0.011507666 -0.045238014
0.0022792583 0.007551136 0.03460621 -0.022381205 0.0668595 -0.034983423 -0.02875791 -0.01246654
-0.07585703 -0.040653005 0.051143505 -0.079653375 -0.061540697 -0.18103348 -0.15312785 -0.10495292
-0.24852055 -0.17235449 -0.08753417 -0.19638224 -0.175591 -0.11450807 0.020104222 -0.02120994
-0.010545827 -0.050767675 -0.06633676 -0.07398716 0.015883407 -0.046058476 -0.09704293 -0.016192744
-0.00064989756 0.023696138 -0.006760972 -0.0074140816 -0.009405048 -0.014133451 0.026539925 0.04569815
-0.017824164 0.030349968 0.083846994 0.04470311 -0.008761974 0.04060406 -0.037491605 0.15319191
0.07257027 0.0687145 0.0014437953 0.04483846 -0.01760536 -0.027517775 0.065186016 0.03247303
0.0036202539 0.044917215 0.0741813 0.11786837 -0.0026419843 0.06085968 0.03997654 -0.0038200389
0.10618232 0.020116141 0.04127706 -0.0401406 -0.025490794 -0.025718253 0.04113915 0.04147313
-0.0040204823 -0.023217956 -0.06583454 -0.050712176 0.036196392 -0.024054445 -0.0734052 0.0503911
-0.06063744 -0.03494101 0.008360792 -0.07692224 -0.07029479 0.115115255 0.04761671 -0.036141593
0.008256749 0.036901515 -0.029024012 0.042359006 -0.016508412 -0.08675524 -0.030356435 0.011485674
0.034008514 -0.012776687 -0.005321648 -0.07925203 -0.04689572 0.054722827 -0.057068087 0.052019417
0.010684946 0.10935631 0.03540644 0.0022531566 0.07098891 -0.032584295 -0.055460066 0.06520454
0.008060341 -0.03966393 -0.04344277 -0.026570247 -0.0033778725 -0.035636805 -0.03197342 -0.0016998607
-0.05883289 0.062029097 0.055480607 0.10749723 0.097082846 -0.07734238 0.022036482 0.0984331
-0.0062893312 0.008933198 -0.0241003 -0.07125197 0.005562643 0.0008787836 -0.011368925 0.018874694
-0.035874117 0.019568732 0.016405204 0.10161436 -0.014910624 -0.009517274 0.0695551 -0.013653877
-0.06562857 0.04948562 -0.08760632 -0.05898944 0.013225341 0.08005043 -0.0876917 0.120763
0.1276478 0.031715624 0.10914634 0.24547163 0.005494432 -0.05549637 -0.16862069 0.0051514045
-0.10205316 -0.08628225 0.030950932 -0.1041979 -0.16269182 -0.052461747 0.014302392 -0.092684425
-0.07183496 0.027697502 -0.09812342 -0.05457922 0.047625214 -0.14519505 0.006090906 0.002797004
0.042406596 0.015514918 0.010996381 0.0138756195 0.04971442 0.10226259 0.056027938 0.056383274
-0.0077056875 -0.01012513 0.07413709 -0.050369672 0.0054404694 0.03841088 -0.03898019 -0.0050915787
0.073078945 0.05020777 -0.02784912 -0.12095764 0.05305785 0.025315398 -0.042130724 0.074049965
-0.06304979 -0.21047583 0.021989118 0.067222096 0.14203219 0.04710855 0.07867343 0.09729047
-0.00030256843 0.09172709 0.195457 -0.041663148 -0.015374437 -0.07636631 -0.10340346 -0.07668111
-0.13734126 -0.09076412 -0.07413269 -0.07001316 0.15028872 0.1576749 0.15622 0.09027874

conv3.0.bias f4 [64]
00000000: 9e69 7b3d b2c9 ed3d 62a0 d93c 1eed 1a3e
00000010: d8db 143e 4e5d 1f3d 8636 8b3e cda9 fa3d
00000020: 1c18 80bd cf3c 27be 60d0 a83d 5dea ccbd
00000030: fd3a 1bbe be4e 593d 0a0f 09be 4a4e aebb
00000040: 6c76 b53d 10b6 433e 1ce4 00be 43ca c03d
00000050: 6b7e 3e3e c462 40be 5446 1d3d ef50 a9bd
00000060: 3948 12bd 9be7 2cbe d272 0fbe 5136 d83d
00000070: bf87 ad3b 58ae 723d 599a c8bc f83f b83d
00000080: 2f66 c7bd c634 a8bd 7415 3f3e bd8f 123e
00000090: 6841 5f3e f833 6d3d 4efb e23c 201f f53d
000000a0: 957f d3bc 9c26 afbc 8f1b 393e 0054 d9ba
000000b0: 220b 9e3d 23fb 423d 1a03 eabd d9a8 283e
000000c0: 09aa 27be f386 463e 24d7 393e f97e 8c3e
000000d0: c94d e03d 25d2 423e 3839 8a3d 61c2 873d
000000e0: 7512 0dbe f0d0 1b3e 988d cd3d 2281 a63d
000000f0: 5b8d e93d bc11 a5bc 1d36 a6bd f066 fcbc
0.06138002 0.11610736 0.026565734 0.15129516 0.14536989 0.03890734 0.27190036 0.12239418
-0.062545985 -0.1633179 0.082428694 -0.10005639 -0.15159221 0.05305361 -0.13384643 -0.0053193914
0.08860478 0.1911242 -0.12587017 0.09413578 0.18602912 -0.18787676 0.03839715 -0.0826739
-0.03571341 -0.16885225 -0.14008644 0.10557235 0.005295723 0.0592483 -0.024487661 0.08996576
-0.09736287 -0.08213191 0.18660527 0.14312644 0.21802294 0.05791089 0.027707722 0.11968827
-0.025817672 -0.021380715 0.18076919 -0.001658082 0.07716967 0.047602784 -0.11426373 0.1647066
-0.16373457 0.19387417 0.18148476 0.27440622 0.10952336 0.19025476 0.06749195 0.06628872
-0.13776572 0.15216422 0.100367725 0.08130099 0.114039145 -0.020150058 -0.0811579 -0.030810803

conv3.1.weight f4 [64]
00000000: 739b f73f 48d2 fe3f c009 0c40 aca5 0140
00000010: 15eb 0040 600b ea3f 813a 0040 253a fa3f
00000020: a2c2 ef3f 7627 0540 6ad3 ef3f 20b6 fb3f
00000030: 638b f53f b19b e43f 9010 f43f 94f6 f33f
00000040: 8133 fc3f 465f de3f caaf e73f 9d07 f63f
00000050: b464 0040 8264 e23f d451 f83f 118b 0540
00000060: e72b f13f f1ea 0640 8c75 ee3f 7435 0d40
00000070: 1bbb f23f 1a53 f23f 7185 f63f 8ae2 f03f
00000080: d32b e73f aa3f fb3f c68d fd3f af77 0440
00000090: 2f67 fa3f 7aa9 fc3f 6679 eb3f ca6b 0440
000000a0: 4363 0040 9110 ec3f 62fe 0240 61c9 e13f
000000b0: 5000 d53f ec5a ed3f e0e6 ee3f b758 0040
000000c0: 1b81 ec3f 3544 0340 a35f 0440 982b 0040
000000d0: 50b0 0640 a6e6 f53f 5471 f83f 6713 f03f
000000e0: be16 e23f 792a fc3f 4dc8 f03f 0a80 e23f
000000f0: 6c82 e53f f6ac e43f 3e67 dd3f 687b f93f
1.9344314 1.9907923 2.188095 2.0257368 2.0143483 1.8284721 2.0035708 1.9548994
1.8731272 2.0805335 1.8736393 1.9664955 1.9183162 1.7860013 1.9067554 1.9059625
1.9703218 1.7372825 1.8100522 1.9221073 2.0061464 1.7686923 1.9399972 2.086613
1.8841523 2.1080897 1.8629622 2.2063875 1.896335 1.893161 1.9259473 1.8819134
1.8060249 1.9628804 1.9808891 2.069805 1.9562739 1.973922 1.8396423 2.069079
2.0060585 1.8442556 2.0467763 1.7639581 1.664072 1.8543372 1.8664207 2.0054147
1.84769 2.051038 2.0683372 2.0026608 2.1045113 1.9211013 1.9409585 1.8755921
1.766319 1.9700462 1.8811127 1.7695324 1.7930427 1.7865283 1.7297132 1.9490786

conv3.1.bias f4 [64]
00000000: f342 62bd 3836 653d 9afd 213d 9f02 25be
00000010: f1f8 1dbe f71d 823c cbab 68bc fa1a 3bbc
00000020: 3a7f 4abc 7d92 9a3d fb0e c9bd bc8e b53d
00000030: 546a f53a e32f 023e c82d c23c 856a c0bc
00000040: a82d 28bc 5ff6 cd3d e9a1 263e 73ed b03b
00000050: e001 c5bd 4c39 c23d a19b fdbc b5b0 1d3d
00000060: 6154 4c3d f7ca e4bd b926 5b3e ea2c 47bd
00000070: 3323 263e dab5 cabd 4351 0d3d 6b6c 133e
00000080: 176d 503d 2631 4c3d 93e3 fdbd 54d6 813b
00000090: 9d39 5c3c 31a2 94bd 74c5 36bd 841b b33c
000000a0: 65b0 0c3e dd09 a43d f418 9fbd 8893 9c3d
000000b0: f97c 293e fca6 dc3c 4041 023e 1c85 f33c
000000c0: 2093 153e fc5b f8bc 309a 4bbd 244f 64be
000000d0: 0c98 873c fcca 75bd 9c2d 2d3e 49a2 493d
000000e0: 6929 7a3e 1af3 553e 1256 163d 7efb 8e3d
000000f0: a2a1 01bc 59af a93d c53b e23d d974 d13d
-0.05523963 0.05595991 0.039548494 -0.16114281 -0.15426995 0.015883429 -0.014201115 -0.011420006
-0.012359435 0.07547472 -0.098173104 0.08865115 0.0018723705 0.1271358 0.02370347 -0.023488292
-0.010264792 0.10056757 0.16272701 0.0053994 -0.09619498 0.09483585 -0.030957999 0.0384986
0.049885157 -0.11171525 0.2140149 -0.048626818 0.16224365 -0.09897967 0.034501325 0.14396827
0.050885286 0.04985156 -0.12396922 0.0039623175 0.01344147 -0.07257498 -0.0446219 0.021863706
0.13739164 0.08009694 -0.07768431 0.07645327 0.1655158 0.026935093 0.12720203 0.029726557
0.14606905 -0.030317299 -0.04970759 -0.22295815 0.016551994 -0.060008034 0.1691193 0.049227033
0.24429859 0.20893517 0.036703177 0.06981562 -0.007912071 0.08285398 0.110465564 0.10227365

conv3.1.running_mean f4 [64]
00000000: 5206 bd3d 41e4 f73e e1fb 983e 1b96 373f
00000010: baf7 0e3f 2fd2 7e3a 8e89 373f 4961 233f
00000020: 3149 babe 2f8c 64bf 9836 e33d 3d2e f4bc
00000030: 0c20 88bf e822 953e 32e7 65be d041 c33c
00000040: c5e8 8a3e 76b4 243f 6526 48bf a3db e93e
00000050: 7dc8 323f 6a7c 39bf b307 0bbd 3fd2 61bd
00000060: e405 0fbe 1b32 3bbf d096 fcbe e333 a73e
00000070: f736 0d3e 4fed a33e 5916 5b3e 2dad c73e
00000080: da53 b8be 0f9d 92be 1799 0d3e fe62 563f
00000090: e23f 113f 1b42 363d 7eea fe3d d05b c03e
000000a0: bc76 013e 6f45 a9bd afc5 8b3e 6c35 10be
000000b0: 109f 0a3e 7b42 7cbe fc88 1ebf f438 133f
000000c0: ccbf 29bf 3b9e 203f 725f 403f b103 4d3f
000000d0: 69e4 e13e c105 163f 2a63 c13e e5f7 253f
000000e0: 986f 33bf 2e18 983e b8a0 303d a5f0 1b3f
000000f0: eaf9 063f 0a2e 30be 89bb a2bd d605 9c3b
0.09229721 0.4841633 0.29879668 0.7171342 0.5584675 0.0009720651 0.71694267 0.6382032
-0.36383966 -0.89276403 0.11094397 -0.029807204 -1.063478 0.29128194 -0.22451475 0.023835093
0.27130714 0.6433786 -0.78183585 0.45675382 0.6983717 -0.72455466 -0.03394289 -0.055132147
-0.13967091 -0.7312333 -0.4933381 0.32656774 0.13790499 0.3201699 0.21395244 0.3899931
-0.36001474 -0.2863545 0.1382793 0.837448 0.567381 0.044496637 0.124470696 0.37570047
0.1264295 -0.082651965 0.27299258 -0.14082879 0.1353724 -0.24634735 -0.6192777 0.5750878
-0.66308284 0.6274144 0.7514564 0.8008376 0.44119576 0.5860253 0.3777097 0.6483138
-0.70092154 0.29705948 0.043122023 0.6091407 0.5272509 -0.17205063 -0.07945926 0.004761438

conv3.1.running_var f4 [64]
00000000: da20 be3e 6a5c 2d3e 9cfc 513e 75e2 743e
00000010: dbef 6c3e c55c 473e fa6b 4e3e 2b4d 483e
00000020: e0ef 403e 6688 743e 9408 813e 83f8 843e
00000030: eb5b c43e 403e 3f3e 0121 583e d2e2 1a3e
00000040: 815f 8c3e b3ba 433e 1eeb 4e3e 5231 483e
00000050: cb1c 5b3e bb14 793e 0f68 5e3e 915a 3f3e
00000060: e1e9 2d3e 08d9 b93e cf43 733e ecf3 4d3e
00000070: 2fcf 613e 2304 693e 2ab9 3f3e 2be1 493e
00000080: a100 523e 656c a23e 3da3 673e ea50 833e
00000090: 7702 2e3e da44 363e 1849 7f3e 742d 9a3e
000000a0: a0bf 4f3e c721 7e3e dda3 6b3e 1b36 733e
000000b0: 6822 623e 43ed 7e3e c970 813e af55 643e
000000c0: f0f6 353e 9a6b 513e a4b5 683e 70cc 643e
000000d0: 62d5 973e 6311 6d3e f586 5e3e 0e2e 5f3e
000000e0: bd2d 853e 621c 6b3e abed 423e 2291 893e
000000f0: 5e61 2e3e 04b3 243e 5f3a 463e c164 523e
0.3713444 0.16929784 0.20506519 0.23914512 0.23138373 0.19468983 0.20158377 0.19560687
0.18841505 0.23880157 0.25201857 0.2597085 0.38351378 0.1867609 0.2110634 0.15125588
0.27416614 0.19114189 0.20206878 0.19550064 0.21397702 0.24324314 0.21719383 0.18686892
0.16983749 0.36298394 0.23756336 0.2011258 0.2205169 0.22755484 0.18722978 0.19714801
0.20508052 0.31723323 0.22620864 0.2564767 0.16993128 0.17799702 0.24930227 0.30112803
0.20287943 0.24817573 0.23011728 0.23751108 0.22083437 0.24895196 0.2528136 0.2229831
0.1776998 0.20451203 0.2272554 0.22343612 0.29654986 0.23151164 0.2173117 0.21794912
0.26011458 0.22960046 0.19035976 0.2686854 0.1702933 0.16083914 0.19358204 0.20546247

fc.weight f4 [10, 64]
00000000: 0346 843c b1cd fb3e b809 093f 85f7 cd3d
00000010: 6eeb 9c3e a321 da3d 60c2 3dbf 361c 1bbd
00000020: 10d4 1c3e 6708 b5be d482 f5bd 6042 b6be
00000030: 5f73 db3e 91d2 acbe 2859 0ebf 7d40 37bf
00000040: e9a8 0bbf c25f 12bf 578f 003f b34e a3bc
00000050: f0cf 05bf 31b2 bf3e 73f0 1abf c1fc 003f
00000060: 8920 293c df65 153f 1b22 bf3e b579 1fbf
00000070: f87d 803e 07d0 23be 59be d53d 5e32 413e
00000080: 0bd4 f63e 9855 1a3e 632e 12bf 0186 60bf
00000090: 1155 133f 7a64 afbe c9db 0dbf 1713 12bf
000000a0: 8956 c33e 186b 56be 9ede 97bc cb9a 1b3e
000000b0: 8e0f 32bd 29d0 6dbd 377b 823e e584 d6be
000000c0: 7b9f 043f ec66 e33e 2aa5 1cbf 4950 923e
000000d0: 64e1 a43d bc2f 09bf 0d57 dabe 2565 01bf
000000e0: e855 d83e f07e 00be 293f eabd 2a88 56bd
000000f0: 7780 05bf 99f3 973e 6403 4b3e c29f 15bd
00000100: ba38 133e 3b6a 0c3e 3911 d1bd 88a4 c93d
00000110: b75b bd3e 6471 a2be b198 423d 7109 a73e
00000120: 3ce9 213d e6ed 5c3e 3aef a33e 52a5 a1be
00000130: 1e75 4fbe f8ce c0be 9875 77be d2ac 94bd
00000140: 8da0 8b3e 10d7 debe 7354 fbbe 97c9 92be
00000150: fbeb 2f3e f28e c6bd 004e 80be 4b79 1a3e
00000160: ebf3 afbe a8c6 b8bb a741 2bbf 1b15 d43e
00000170: 96fa a6be 8394 933e 86c4 ae3e 52ea d5be
00000180: 57e1 f4bd cf49 dcbb 9297 9a3e 1631 c33e
00000190: 6a1b 903e 79ef 083e 1b07 04bf f173 f63e
000001a0: d03f d0bd 943a f0bd 837b ae3e e13b fc3c
000001b0: 3df0 eabe 709e bfbe 5873 e1be 5b4c 8a3c
000001c0: b136 35be 5dcc bc3e 0f0e 1b3e 51bc f23e
000001d0: ef1d b4bd 06b9 a83e ce5e a0be bbc3 35be
000001e0: a0cd 40bf c1c7 e6be 91ee afbd 0efb a3be
000001f0: 06d0 633e 78c8 003e 2505 53bc efd7 2c3c
00000200: 3d89 79be 8ed2 22be eb66 e03d fe2c 96bd
00000210: 7f83 d6be febf c83e 10a3 093f 4237 05bf
00000220: 773f 46bf 78d3 6d3d d4a3 6bbe 6fdd 883e
00000230: 98a4 c5be d18c 153f a8c0 bfbe 28ca 15be
00000240: ef7f fe3b 12d7 27be 2b3a da3e 9fb2 30be
00000250: 1691 fcbe 1917 a6be 8d5b da3a 06f5 41bf
00000260: c2c4 033f 6900 3fbf f330 ad3e 9f7b 963e
00000270: abe2 5ebd bd71 12bf 100a e23d 55c9 5f3e
00000280: 7096 a4be 11e4 b8be 7b2b 723d 56a2 14bd
00000290: 7286 1b3d 4056 083f 50f0 80bd 3fdd aebe
000002a0: b394 153e 00be b9be e5bd 8e3e 5267 653e
000002b0: 0da2 e73d 751f bfbe 70fb 733e fa02 db3e
000002c0: 96f5 a9bd 4bf1 27bf f1d5 2bbe fe06 07bf
000002d0: a6e6 173d e15f d4bd 1740 dc3e bd86 5fbc
000002e0: 6493 043e 831f 083e 3b88 e4be 43b4 b4be
000002f0: 4b23 013f defa 0abf 7538 92be 514c e13e
00000300: 5d76 95be f1b7 11bf 5b92 b8bc 9787 823e
00000310: 2617 773e 4c45 d63e 21a1 803e adce a53e
00000320: 5969 e9bd 5050 f03e 6d46 debe d4f2 41bd
00000330: 872b cbbd c494 a3be 0797 e6be 21ec 65be
00000340: 5d9d 2abe ddd2 993e 7206 da3c 376a eebc
00000350: 213d 6abe 764c d2be aa56 32be db9f 28bf
00000360: cace 303e 4b48 9dbe 1a9a bd3d 5272 bbbe
00000370: 3951 793c 6ace eebd c396 51be 6115 de3d
00000380: 5c61 1dbf f12f 8c3e 3b48 53be 73e3 993e
00000390: 2bf4 efbd 9b37 8abe d3ff 50be ea5d 543e
000003a0: 823d 1abd 0449 eb3e 52b8 133f f001 9dbe
000003b0: 2268 b53e a14c 0dbe d40d ac3e a658 9f3e
000003c0: 4262 d4be 18cb 433e fbbf 0dbc f6df 0c3f
000003d0: 395c 643e ec5d 0a3d 0392 7e3e 9a4f 0cbf
000003e0: 6e6b a6bd 1d10 9e3e 431b babe 8017 983e
000003f0: 1ed2 0dbe d73e 563c 5eb8 09bf 0e71 bdbe
0.016146665 0.49180368 0.53530455 0.10056976 0.3064837 0.10650947 -0.7412472 -0.0378687
0.1531527 -0.35357973 -0.11987844 -0.35597515 0.4286146 -0.337544 -0.5560479 -0.71582776
-0.5455461 -0.57177365 0.5021872 -0.019934988 -0.5227041 0.37440637 -0.60523146 0.5038567
0.010322698 0.5835857 0.37330708 -0.62295085 0.25096107 -0.15997325 0.104366966 0.1886687
0.4820865 0.15071714 -0.5710203 -0.87704474 0.57551676 -0.34256345 -0.5541349 -0.5706038
0.3815196 -0.2093929 -0.01853877 0.15195768 -0.043471865 -0.058059845 0.2548463 -0.41898265
0.5180585 0.4441446 -0.6118952 0.28576878 0.08050802 -0.5358846 -0.4264454 -0.5054496
0.4225304 -0.12548423 -0.11437828 -0.05237595 -0.52149147 0.29678038 0.19825512 -0.03652931
0.14377108 0.13712399 -0.10208363 0.09845835 0.36984035 -0.31727135 0.0475089 0.3262439
0.03952907 0.21575126 0.32018453 -0.31571442 -0.2025952 -0.37657905 -0.24165952 -0.07259525
0.27270928 -0.43523455 -0.49087867 -0.28669426 0.17179863 -0.096952334 -0.2505951 0.15085332
-0.34365782 -0.005638916 -0.6689705 0.41422352 -0.32613057 0.28824243 0.3413431 -0.41780335
-0.11957043 -0.006722666 0.30193764 0.38123387 0.28145915 0.13372602 -0.5157334 0.4813533
-0.10168421 -0.11729923 0.34078607 0.030790271 -0.45886412 -0.37425566 -0.44033313 0.016882112
-0.17696644 0.36874667 0.15142082 0.474093 -0.08794772 0.32953662 -0.3132233 -0.17750446
-0.7531376 -0.45074275 -0.08590425 -0.32027477 0.22247323 0.12576473 -0.0128796445 0.010549529
-0.24368758 -0.15900633 0.1095713 -0.073328 -0.418972 0.39208978 0.5376444 -0.5203744
-0.7744059 0.058063 -0.23011714 0.2673144 -0.38602138 0.58417994 -0.37451673 -0.14627898
0.0077667157 -0.16390637 0.42622504 -0.17255639 -0.49329442 -0.32439497 0.0016659364 -0.757645
0.51472104 -0.7461 0.33826408 0.2939119 -0.054415386 -0.572048 0.110370755 0.21854146
-0.32146025 -0.361115 0.059123497 -0.036287628 0.037970014 0.5325661 -0.06295836 -0.34153172
0.14607506 -0.3627777 0.27879253 0.22402695 0.113102056 -0.37328687 0.23826385 0.42775708
-0.08298795 -0.6560256 -0.16780831 -0.52745044 0.037085198 -0.1036985 0.43017647 -0.013642964
0.1294685 0.13293271 -0.44635186 -0.3529378 0.5044448 -0.5428904 -0.28558698 0.44003537
-0.29191867 -0.569213 -0.022530725 0.25494072 0.24129924 0.41849744 0.25122932 0.32384244
-0.113970466 0.46936274 -0.43413106 -0.04735072 -0.099204116 -0.31949437 -0.450371 -0.22453357
-0.16661592 0.30043688 0.026614401 -0.029103382 -0.22874881 -0.4107396 -0.17415872 -0.6586892
0.17266384 -0.30719218 0.09257908 -0.36610657 0.015217119 -0.11660464 -0.20467667 0.108439215
-0.61476684 0.27380326 -0.20633022 0.30056342 -0.11716493 -0.2699555 -0.20410089 0.2073895
-0.037656315 0.45954144 0.57703125 -0.3066554 0.3543101 -0.13798763 0.336043 0.3112232
-0.41481215 0.19120443 -0.008651729 0.5502924 0.22300805 0.033780977 0.24860387 -0.5480896
-0.08125959 0.30871668 -0.36348924 0.2970543 -0.13849685 0.013076506 -0.53796947 -0.37000316

fc.bias f4 [10]
00000000: 73da 623d 6751 5bbd 632c 8d3d 7ee9 0fbd
00000010: 2634 8f3d 028b 13be 89f4 c73d ef1d d4bd
00000020: 9810 01bd d268 d03d
0.05538411 -0.05354443 0.06893232 -0.035134785 0.069923684 -0.14408496 0.09763438 -0.10357272
-0.031509966 0.10176243
